WARNING: Logging before InitGoogleLogging() is written to STDERR
I0816 12:44:07.072222 11069 net.cpp:42] Initializing net from parameters: 
name: "GoogleNet"
input: "data"
input_dim: 10
input_dim: 3
input_dim: 224
input_dim: 224
state {
  phase: TEST
}
layer {
  name: "conv1/7x7_s2"
  type: "Convolution"
  bottom: "data"
  top: "conv1/7x7_s2"
  param {
    lr_mult: 1
    decay_mult: 1
  }
  param {
    lr_mult: 2
    decay_mult: 0
  }
  convolution_param {
    num_output: 64
    pad: 3
    kernel_size: 7
    stride: 2
    weight_filler {
      type: "xavier"
      std: 0.1
    }
    bias_filler {
      type: "constant"
      value: 0.2
    }
  }
}
layer {
  name: "conv1/relu_7x7"
  type: "ReLU"
  bottom: "conv1/7x7_s2"
  top: "conv1/7x7_s2"
}
layer {
  name: "pool1/3x3_s2"
  type: "Pooling"
  bottom: "conv1/7x7_s2"
  top: "pool1/3x3_s2"
  pooling_param {
    pool: MAX
    kernel_size: 3
    stride: 2
  }
}
layer {
  name: "pool1/norm1"
  type: "LRN"
  bottom: "pool1/3x3_s2"
  top: "pool1/norm1"
  lrn_param {
    local_size: 5
    alpha: 0.0001
    beta: 0.75
  }
}
layer {
  name: "conv2/3x3_reduce"
  type: "Convolution"
  bottom: "pool1/norm1"
  top: "conv2/3x3_reduce"
  param {
    lr_mult: 1
    decay_mult: 1
  }
  param {
    lr_mult: 2
    decay_mult: 0
  }
  convolution_param {
    num_output: 64
    kernel_size: 1
    weight_filler {
      type: "xavier"
      std: 0.1
    }
    bias_filler {
      type: "constant"
      value: 0.2
    }
  }
}
layer {
  name: "conv2/relu_3x3_reduce"
  type: "ReLU"
  bottom: "conv2/3x3_reduce"
  top: "conv2/3x3_reduce"
}
layer {
  name: "conv2/3x3"
  type: "Convolution"
  bottom: "conv2/3x3_reduce"
  top: "conv2/3x3"
  param {
    lr_mult: 1
    decay_mult: 1
  }
  param {
    lr_mult: 2
    decay_mult: 0
  }
  convolution_param {
    num_output: 192
    pad: 1
    kernel_size: 3
    weight_filler {
      type: "xavier"
      std: 0.03
    }
    bias_filler {
      type: "constant"
      value: 0.2
    }
  }
}
layer {
  name: "conv2/relu_3x3"
  type: "ReLU"
  bottom: "conv2/3x3"
  top: "conv2/3x3"
}
layer {
  name: "conv2/norm2"
  type: "LRN"
  bottom: "conv2/3x3"
  top: "conv2/norm2"
  lrn_param {
    local_size: 5
    alpha: 0.0001
    beta: 0.75
  }
}
layer {
  name: "pool2/3x3_s2"
  type: "Pooling"
  bottom: "conv2/norm2"
  top: "pool2/3x3_s2"
  pooling_param {
    pool: MAX
    kernel_size: 3
    stride: 2
  }
}
layer {
  name: "inception_3a/1x1"
  type: "Convolution"
  bottom: "pool2/3x3_s2"
  top: "inception_3a/1x1"
  param {
    lr_mult: 1
    decay_mult: 1
  }
  param {
    lr_mult: 2
    decay_mult: 0
  }
  convolution_param {
    num_output: 64
    kernel_size: 1
    weight_filler {
      type: "xavier"
      std: 0.03
    }
    bias_filler {
      type: "constant"
      value: 0.2
    }
  }
}
layer {
  name: "inception_3a/relu_1x1"
  type: "ReLU"
  bottom: "inception_3a/1x1"
  top: "inception_3a/1x1"
}
layer {
  name: "inception_3a/3x3_reduce"
  type: "Convolution"
  bottom: "pool2/3x3_s2"
  top: "inception_3a/3x3_reduce"
  param {
    lr_mult: 1
    decay_mult: 1
  }
  param {
    lr_mult: 2
    decay_mult: 0
  }
  convolution_param {
    num_output: 96
    kernel_size: 1
    weight_filler {
      type: "xavier"
      std: 0.09
    }
    bias_filler {
      type: "constant"
      value: 0.2
    }
  }
}
layer {
  name: "inception_3a/relu_3x3_reduce"
  type: "ReLU"
  bottom: "inception_3a/3x3_reduce"
  top: "inception_3a/3x3_reduce"
}
layer {
  name: "inception_3a/3x3"
  type: "Convolution"
  bottom: "inception_3a/3x3_reduce"
  top: "inception_3a/3x3"
  param {
    lr_mult: 1
    decay_mult: 1
  }
  param {
    lr_mult: 2
    decay_mult: 0
  }
  convolution_param {
    num_output: 128
    pad: 1
    kernel_size: 3
    weight_filler {
      type: "xavier"
      std: 0.03
    }
    bias_filler {
      type: "constant"
      value: 0.2
    }
  }
}
layer {
  name: "inception_3a/relu_3x3"
  type: "ReLU"
  bottom: "inception_3a/3x3"
  top: "inception_3a/3x3"
}
layer {
  name: "inception_3a/5x5_reduce"
  type: "Convolution"
  bottom: "pool2/3x3_s2"
  top: "inception_3a/5x5_reduce"
  param {
    lr_mult: 1
    decay_mult: 1
  }
  param {
    lr_mult: 2
    decay_mult: 0
  }
  convolution_param {
    num_output: 16
    kernel_size: 1
    weight_filler {
      type: "xavier"
      std: 0.2
    }
    bias_filler {
      type: "constant"
      value: 0.2
    }
  }
}
layer {
  name: "inception_3a/relu_5x5_reduce"
  type: "ReLU"
  bottom: "inception_3a/5x5_reduce"
  top: "inception_3a/5x5_reduce"
}
layer {
  name: "inception_3a/5x5"
  type: "Convolution"
  bottom: "inception_3a/5x5_reduce"
  top: "inception_3a/5x5"
  param {
    lr_mult: 1
    decay_mult: 1
  }
  param {
    lr_mult: 2
    decay_mult: 0
  }
  convolution_param {
    num_output: 32
    pad: 2
    kernel_size: 5
    weight_filler {
      type: "xavier"
      std: 0.03
    }
    bias_filler {
      type: "constant"
      value: 0.2
    }
  }
}
layer {
  name: "inception_3a/relu_5x5"
  type: "ReLU"
  bottom: "inception_3a/5x5"
  top: "inception_3a/5x5"
}
layer {
  name: "inception_3a/pool"
  type: "Pooling"
  bottom: "pool2/3x3_s2"
  top: "inception_3a/pool"
  pooling_param {
    pool: MAX
    kernel_size: 3
    stride: 1
    pad: 1
  }
}
layer {
  name: "inception_3a/pool_proj"
  type: "Convolution"
  bottom: "inception_3a/pool"
  top: "inception_3a/pool_proj"
  param {
    lr_mult: 1
    decay_mult: 1
  }
  param {
    lr_mult: 2
    decay_mult: 0
  }
  convolution_param {
    num_output: 32
    kernel_size: 1
    weight_filler {
      type: "xavier"
      std: 0.1
    }
    bias_filler {
      type: "constant"
      value: 0.2
    }
  }
}
layer {
  name: "inception_3a/relu_pool_proj"
  type: "ReLU"
  bottom: "inception_3a/pool_proj"
  top: "inception_3a/pool_proj"
}
layer {
  name: "inception_3a/output"
  type: "Concat"
  bottom: "inception_3a/1x1"
  bottom: "inception_3a/3x3"
  bottom: "inception_3a/5x5"
  bottom: "inception_3a/pool_proj"
  top: "inception_3a/output"
}
layer {
  name: "inception_3b/1x1"
  type: "Convolution"
  bottom: "inception_3a/output"
  top: "inception_3b/1x1"
  param {
    lr_mult: 1
    decay_mult: 1
  }
  param {
    lr_mult: 2
    decay_mult: 0
  }
  convolution_param {
    num_output: 128
    kernel_size: 1
    weight_filler {
      type: "xavier"
      std: 0.03
    }
    bias_filler {
      type: "constant"
      value: 0.2
    }
  }
}
layer {
  name: "inception_3b/relu_1x1"
  type: "ReLU"
  bottom: "inception_3b/1x1"
  top: "inception_3b/1x1"
}
layer {
  name: "inception_3b/3x3_reduce"
  type: "Convolution"
  bottom: "inception_3a/output"
  top: "inception_3b/3x3_reduce"
  param {
    lr_mult: 1
    decay_mult: 1
  }
  param {
    lr_mult: 2
    decay_mult: 0
  }
  convolution_param {
    num_output: 128
    kernel_size: 1
    weight_filler {
      type: "xavier"
      std: 0.09
    }
    bias_filler {
      type: "constant"
      value: 0.2
    }
  }
}
layer {
  name: "inception_3b/relu_3x3_reduce"
  type: "ReLU"
  bottom: "inception_3b/3x3_reduce"
  top: "inception_3b/3x3_reduce"
}
layer {
  name: "inception_3b/3x3"
  type: "Convolution"
  bottom: "inception_3b/3x3_reduce"
  top: "inception_3b/3x3"
  param {
    lr_mult: 1
    decay_mult: 1
  }
  param {
    lr_mult: 2
    decay_mult: 0
  }
  convolution_param {
    num_output: 192
    pad: 1
    kernel_size: 3
    weight_filler {
      type: "xavier"
      std: 0.03
    }
    bias_filler {
      type: "constant"
      value: 0.2
    }
  }
}
layer {
  name: "inception_3b/relu_3x3"
  type: "ReLU"
  bottom: "inception_3b/3x3"
  top: "inception_3b/3x3"
}
layer {
  name: "inception_3b/5x5_reduce"
  type: "Convolution"
  bottom: "inception_3a/output"
  top: "inception_3b/5x5_reduce"
  param {
    lr_mult: 1
    decay_mult: 1
  }
  param {
    lr_mult: 2
    decay_mult: 0
  }
  convolution_param {
    num_output: 32
    kernel_size: 1
    weight_filler {
      type: "xavier"
      std: 0.2
    }
    bias_filler {
      type: "constant"
      value: 0.2
    }
  }
}
layer {
  name: "inception_3b/relu_5x5_reduce"
  type: "ReLU"
  bottom: "inception_3b/5x5_reduce"
  top: "inception_3b/5x5_reduce"
}
layer {
  name: "inception_3b/5x5"
  type: "Convolution"
  bottom: "inception_3b/5x5_reduce"
  top: "inception_3b/5x5"
  param {
    lr_mult: 1
    decay_mult: 1
  }
  param {
    lr_mult: 2
    decay_mult: 0
  }
  convolution_param {
    num_output: 96
    pad: 2
    kernel_size: 5
    weight_filler {
      type: "xavier"
      std: 0.03
    }
    bias_filler {
      type: "constant"
      value: 0.2
    }
  }
}
layer {
  name: "inception_3b/relu_5x5"
  type: "ReLU"
  bottom: "inception_3b/5x5"
  top: "inception_3b/5x5"
}
layer {
  name: "inception_3b/pool"
  type: "Pooling"
  bottom: "inception_3a/output"
  top: "inception_3b/pool"
  pooling_param {
    pool: MAX
    kernel_size: 3
    stride: 1
    pad: 1
  }
}
layer {
  name: "inception_3b/pool_proj"
  type: "Convolution"
  bottom: "inception_3b/pool"
  top: "inception_3b/pool_proj"
  param {
    lr_mult: 1
    decay_mult: 1
  }
  param {
    lr_mult: 2
    decay_mult: 0
  }
  convolution_param {
    num_output: 64
    kernel_size: 1
    weight_filler {
      type: "xavier"
      std: 0.1
    }
    bias_filler {
      type: "constant"
      value: 0.2
    }
  }
}
layer {
  name: "inception_3b/relu_pool_proj"
  type: "ReLU"
  bottom: "inception_3b/pool_proj"
  top: "inception_3b/pool_proj"
}
layer {
  name: "inception_3b/output"
  type: "Concat"
  bottom: "inception_3b/1x1"
  bottom: "inception_3b/3x3"
  bottom: "inception_3b/5x5"
  bottom: "inception_3b/pool_proj"
  top: "inception_3b/output"
}
layer {
  name: "pool3/3x3_s2"
  type: "Pooling"
  bottom: "inception_3b/output"
  top: "pool3/3x3_s2"
  pooling_param {
    pool: MAX
    kernel_size: 3
    stride: 2
  }
}
layer {
  name: "inception_4a/1x1"
  type: "Convolution"
  bottom: "pool3/3x3_s2"
  top: "inception_4a/1x1"
  param {
    lr_mult: 1
    decay_mult: 1
  }
  param {
    lr_mult: 2
    decay_mult: 0
  }
  convolution_param {
    num_output: 192
    kernel_size: 1
    weight_filler {
      type: "xavier"
      std: 0.03
    }
    bias_filler {
      type: "constant"
      value: 0.2
    }
  }
}
layer {
  name: "inception_4a/relu_1x1"
  type: "ReLU"
  bottom: "inception_4a/1x1"
  top: "inception_4a/1x1"
}
layer {
  name: "inception_4a/3x3_reduce"
  type: "Convolution"
  bottom: "pool3/3x3_s2"
  top: "inception_4a/3x3_reduce"
  param {
    lr_mult: 1
    decay_mult: 1
  }
  param {
    lr_mult: 2
    decay_mult: 0
  }
  convolution_param {
    num_output: 96
    kernel_size: 1
    weight_filler {
      type: "xavier"
      std: 0.09
    }
    bias_filler {
      type: "constant"
      value: 0.2
    }
  }
}
layer {
  name: "inception_4a/relu_3x3_reduce"
  type: "ReLU"
  bottom: "inception_4a/3x3_reduce"
  top: "inception_4a/3x3_reduce"
}
layer {
  name: "inception_4a/3x3"
  type: "Convolution"
  bottom: "inception_4a/3x3_reduce"
  top: "inception_4a/3x3"
  param {
    lr_mult: 1
    decay_mult: 1
  }
  param {
    lr_mult: 2
    decay_mult: 0
  }
  convolution_param {
    num_output: 208
    pad: 1
    kernel_size: 3
    weight_filler {
      type: "xavier"
      std: 0.03
    }
    bias_filler {
      type: "constant"
      value: 0.2
    }
  }
}
layer {
  name: "inception_4a/relu_3x3"
  type: "ReLU"
  bottom: "inception_4a/3x3"
  top: "inception_4a/3x3"
}
layer {
  name: "inception_4a/5x5_reduce"
  type: "Convolution"
  bottom: "pool3/3x3_s2"
  top: "inception_4a/5x5_reduce"
  param {
    lr_mult: 1
    decay_mult: 1
  }
  param {
    lr_mult: 2
    decay_mult: 0
  }
  convolution_param {
    num_output: 16
    kernel_size: 1
    weight_filler {
      type: "xavier"
      std: 0.2
    }
    bias_filler {
      type: "constant"
      value: 0.2
    }
  }
}
layer {
  name: "inception_4a/relu_5x5_reduce"
  type: "ReLU"
  bottom: "inception_4a/5x5_reduce"
  top: "inception_4a/5x5_reduce"
}
layer {
  name: "inception_4a/5x5"
  type: "Convolution"
  bottom: "inception_4a/5x5_reduce"
  top: "inception_4a/5x5"
  param {
    lr_mult: 1
    decay_mult: 1
  }
  param {
    lr_mult: 2
    decay_mult: 0
  }
  convolution_param {
    num_output: 48
    pad: 2
    kernel_size: 5
    weight_filler {
      type: "xavier"
      std: 0.03
    }
    bias_filler {
      type: "constant"
      value: 0.2
    }
  }
}
layer {
  name: "inception_4a/relu_5x5"
  type: "ReLU"
  bottom: "inception_4a/5x5"
  top: "inception_4a/5x5"
}
layer {
  name: "inception_4a/pool"
  type: "Pooling"
  bottom: "pool3/3x3_s2"
  top: "inception_4a/pool"
  pooling_param {
    pool: MAX
    kernel_size: 3
    stride: 1
    pad: 1
  }
}
layer {
  name: "inception_4a/pool_proj"
  type: "Convolution"
  bottom: "inception_4a/pool"
  top: "inception_4a/pool_proj"
  param {
    lr_mult: 1
    decay_mult: 1
  }
  param {
    lr_mult: 2
    decay_mult: 0
  }
  convolution_param {
    num_output: 64
    kernel_size: 1
    weight_filler {
      type: "xavier"
      std: 0.1
    }
    bias_filler {
      type: "constant"
      value: 0.2
    }
  }
}
layer {
  name: "inception_4a/relu_pool_proj"
  type: "ReLU"
  bottom: "inception_4a/pool_proj"
  top: "inception_4a/pool_proj"
}
layer {
  name: "inception_4a/output"
  type: "Concat"
  bottom: "inception_4a/1x1"
  bottom: "inception_4a/3x3"
  bottom: "inception_4a/5x5"
  bottom: "inception_4a/pool_proj"
  top: "inception_4a/output"
}
layer {
  name: "inception_4b/1x1"
  type: "Convolution"
  bottom: "inception_4a/output"
  top: "inception_4b/1x1"
  param {
    lr_mult: 1
    decay_mult: 1
  }
  param {
    lr_mult: 2
    decay_mult: 0
  }
  convolution_param {
    num_output: 160
    kernel_size: 1
    weight_filler {
      type: "xavier"
      std: 0.03
    }
    bias_filler {
      type: "constant"
      value: 0.2
    }
  }
}
layer {
  name: "inception_4b/relu_1x1"
  type: "ReLU"
  bottom: "inception_4b/1x1"
  top: "inception_4b/1x1"
}
layer {
  name: "inception_4b/3x3_reduce"
  type: "Convolution"
  bottom: "inception_4a/output"
  top: "inception_4b/3x3_reduce"
  param {
    lr_mult: 1
    decay_mult: 1
  }
  param {
    lr_mult: 2
    decay_mult: 0
  }
  convolution_param {
    num_output: 112
    kernel_size: 1
    weight_filler {
      type: "xavier"
      std: 0.09
    }
    bias_filler {
      type: "constant"
      value: 0.2
    }
  }
}
layer {
  name: "inception_4b/relu_3x3_reduce"
  type: "ReLU"
  bottom: "inception_4b/3x3_reduce"
  top: "inception_4b/3x3_reduce"
}
layer {
  name: "inception_4b/3x3"
  type: "Convolution"
  bottom: "inception_4b/3x3_reduce"
  top: "inception_4b/3x3"
  param {
    lr_mult: 1
    decay_mult: 1
  }
  param {
    lr_mult: 2
    decay_mult: 0
  }
  convolution_param {
    num_output: 224
    pad: 1
    kernel_size: 3
    weight_filler {
      type: "xavier"
      std: 0.03
    }
    bias_filler {
      type: "constant"
      value: 0.2
    }
  }
}
layer {
  name: "inception_4b/relu_3x3"
  type: "ReLU"
  bottom: "inception_4b/3x3"
  top: "inception_4b/3x3"
}
layer {
  name: "inception_4b/5x5_reduce"
  type: "Convolution"
  bottom: "inception_4a/output"
  top: "inception_4b/5x5_reduce"
  param {
    lr_mult: 1
    decay_mult: 1
  }
  param {
    lr_mult: 2
    decay_mult: 0
  }
  convolution_param {
    num_output: 24
    kernel_size: 1
    weight_filler {
      type: "xavier"
      std: 0.2
    }
    bias_filler {
      type: "constant"
      value: 0.2
    }
  }
}
layer {
  name: "inception_4b/relu_5x5_reduce"
  type: "ReLU"
  bottom: "inception_4b/5x5_reduce"
  top: "inception_4b/5x5_reduce"
}
layer {
  name: "inception_4b/5x5"
  type: "Convolution"
  bottom: "inception_4b/5x5_reduce"
  top: "inception_4b/5x5"
  param {
    lr_mult: 1
    decay_mult: 1
  }
  param {
    lr_mult: 2
    decay_mult: 0
  }
  convolution_param {
    num_output: 64
    pad: 2
    kernel_size: 5
    weight_filler {
      type: "xavier"
      std: 0.03
    }
    bias_filler {
      type: "constant"
      value: 0.2
    }
  }
}
layer {
  name: "inception_4b/relu_5x5"
  type: "ReLU"
  bottom: "inception_4b/5x5"
  top: "inception_4b/5x5"
}
layer {
  name: "inception_4b/pool"
  type: "Pooling"
  bottom: "inception_4a/output"
  top: "inception_4b/pool"
  pooling_param {
    pool: MAX
    kernel_size: 3
    stride: 1
    pad: 1
  }
}
layer {
  name: "inception_4b/pool_proj"
  type: "Convolution"
  bottom: "inception_4b/pool"
  top: "inception_4b/pool_proj"
  param {
    lr_mult: 1
    decay_mult: 1
  }
  param {
    lr_mult: 2
    decay_mult: 0
  }
  convolution_param {
    num_output: 64
    kernel_size: 1
    weight_filler {
      type: "xavier"
      std: 0.1
    }
    bias_filler {
      type: "constant"
      value: 0.2
    }
  }
}
layer {
  name: "inception_4b/relu_pool_proj"
  type: "ReLU"
  bottom: "inception_4b/pool_proj"
  top: "inception_4b/pool_proj"
}
layer {
  name: "inception_4b/output"
  type: "Concat"
  bottom: "inception_4b/1x1"
  bottom: "inception_4b/3x3"
  bottom: "inception_4b/5x5"
  bottom: "inception_4b/pool_proj"
  top: "inception_4b/output"
}
layer {
  name: "inception_4c/1x1"
  type: "Convolution"
  bottom: "inception_4b/output"
  top: "inception_4c/1x1"
  param {
    lr_mult: 1
    decay_mult: 1
  }
  param {
    lr_mult: 2
    decay_mult: 0
  }
  convolution_param {
    num_output: 128
    kernel_size: 1
    weight_filler {
      type: "xavier"
      std: 0.03
    }
    bias_filler {
      type: "constant"
      value: 0.2
    }
  }
}
layer {
  name: "inception_4c/relu_1x1"
  type: "ReLU"
  bottom: "inception_4c/1x1"
  top: "inception_4c/1x1"
}
layer {
  name: "inception_4c/3x3_reduce"
  type: "Convolution"
  bottom: "inception_4b/output"
  top: "inception_4c/3x3_reduce"
  param {
    lr_mult: 1
    decay_mult: 1
  }
  param {
    lr_mult: 2
    decay_mult: 0
  }
  convolution_param {
    num_output: 128
    kernel_size: 1
    weight_filler {
      type: "xavier"
      std: 0.09
    }
    bias_filler {
      type: "constant"
      value: 0.2
    }
  }
}
layer {
  name: "inception_4c/relu_3x3_reduce"
  type: "ReLU"
  bottom: "inception_4c/3x3_reduce"
  top: "inception_4c/3x3_reduce"
}
layer {
  name: "inception_4c/3x3"
  type: "Convolution"
  bottom: "inception_4c/3x3_reduce"
  top: "inception_4c/3x3"
  param {
    lr_mult: 1
    decay_mult: 1
  }
  param {
    lr_mult: 2
    decay_mult: 0
  }
  convolution_param {
    num_output: 256
    pad: 1
    kernel_size: 3
    weight_filler {
      type: "xavier"
      std: 0.03
    }
    bias_filler {
      type: "constant"
      value: 0.2
    }
  }
}
layer {
  name: "inception_4c/relu_3x3"
  type: "ReLU"
  bottom: "inception_4c/3x3"
  top: "inception_4c/3x3"
}
layer {
  name: "inception_4c/5x5_reduce"
  type: "Convolution"
  bottom: "inception_4b/output"
  top: "inception_4c/5x5_reduce"
  param {
    lr_mult: 1
    decay_mult: 1
  }
  param {
    lr_mult: 2
    decay_mult: 0
  }
  convolution_param {
    num_output: 24
    kernel_size: 1
    weight_filler {
      type: "xavier"
      std: 0.2
    }
    bias_filler {
      type: "constant"
      value: 0.2
    }
  }
}
layer {
  name: "inception_4c/relu_5x5_reduce"
  type: "ReLU"
  bottom: "inception_4c/5x5_reduce"
  top: "inception_4c/5x5_reduce"
}
layer {
  name: "inception_4c/5x5"
  type: "Convolution"
  bottom: "inception_4c/5x5_reduce"
  top: "inception_4c/5x5"
  param {
    lr_mult: 1
    decay_mult: 1
  }
  param {
    lr_mult: 2
    decay_mult: 0
  }
  convolution_param {
    num_output: 64
    pad: 2
    kernel_size: 5
    weight_filler {
      type: "xavier"
      std: 0.03
    }
    bias_filler {
      type: "constant"
      value: 0.2
    }
  }
}
layer {
  name: "inception_4c/relu_5x5"
  type: "ReLU"
  bottom: "inception_4c/5x5"
  top: "inception_4c/5x5"
}
layer {
  name: "inception_4c/pool"
  type: "Pooling"
  bottom: "inception_4b/output"
  top: "inception_4c/pool"
  pooling_param {
    pool: MAX
    kernel_size: 3
    stride: 1
    pad: 1
  }
}
layer {
  name: "inception_4c/pool_proj"
  type: "Convolution"
  bottom: "inception_4c/pool"
  top: "inception_4c/pool_proj"
  param {
    lr_mult: 1
    decay_mult: 1
  }
  param {
    lr_mult: 2
    decay_mult: 0
  }
  convolution_param {
    num_output: 64
    kernel_size: 1
    weight_filler {
      type: "xavier"
      std: 0.1
    }
    bias_filler {
      type: "constant"
      value: 0.2
    }
  }
}
layer {
  name: "inception_4c/relu_pool_proj"
  type: "ReLU"
  bottom: "inception_4c/pool_proj"
  top: "inception_4c/pool_proj"
}
layer {
  name: "inception_4c/output"
  type: "Concat"
  bottom: "inception_4c/1x1"
  bottom: "inception_4c/3x3"
  bottom: "inception_4c/5x5"
  bottom: "inception_4c/pool_proj"
  top: "inception_4c/output"
}
layer {
  name: "inception_4d/1x1"
  type: "Convolution"
  bottom: "inception_4c/output"
  top: "inception_4d/1x1"
  param {
    lr_mult: 1
    decay_mult: 1
  }
  param {
    lr_mult: 2
    decay_mult: 0
  }
  convolution_param {
    num_output: 112
    kernel_size: 1
    weight_filler {
      type: "xavier"
      std: 0.03
    }
    bias_filler {
      type: "constant"
      value: 0.2
    }
  }
}
layer {
  name: "inception_4d/relu_1x1"
  type: "ReLU"
  bottom: "inception_4d/1x1"
  top: "inception_4d/1x1"
}
layer {
  name: "inception_4d/3x3_reduce"
  type: "Convolution"
  bottom: "inception_4c/output"
  top: "inception_4d/3x3_reduce"
  param {
    lr_mult: 1
    decay_mult: 1
  }
  param {
    lr_mult: 2
    decay_mult: 0
  }
  convolution_param {
    num_output: 144
    kernel_size: 1
    weight_filler {
      type: "xavier"
      std: 0.09
    }
    bias_filler {
      type: "constant"
      value: 0.2
    }
  }
}
layer {
  name: "inception_4d/relu_3x3_reduce"
  type: "ReLU"
  bottom: "inception_4d/3x3_reduce"
  top: "inception_4d/3x3_reduce"
}
layer {
  name: "inception_4d/3x3"
  type: "Convolution"
  bottom: "inception_4d/3x3_reduce"
  top: "inception_4d/3x3"
  param {
    lr_mult: 1
    decay_mult: 1
  }
  param {
    lr_mult: 2
    decay_mult: 0
  }
  convolution_param {
    num_output: 288
    pad: 1
    kernel_size: 3
    weight_filler {
      type: "xavier"
      std: 0.03
    }
    bias_filler {
      type: "constant"
      value: 0.2
    }
  }
}
layer {
  name: "inception_4d/relu_3x3"
  type: "ReLU"
  bottom: "inception_4d/3x3"
  top: "inception_4d/3x3"
}
layer {
  name: "inception_4d/5x5_reduce"
  type: "Convolution"
  bottom: "inception_4c/output"
  top: "inception_4d/5x5_reduce"
  param {
    lr_mult: 1
    decay_mult: 1
  }
  param {
    lr_mult: 2
    decay_mult: 0
  }
  convolution_param {
    num_output: 32
    kernel_size: 1
    weight_filler {
      type: "xavier"
      std: 0.2
    }
    bias_filler {
      type: "constant"
      value: 0.2
    }
  }
}
layer {
  name: "inception_4d/relu_5x5_reduce"
  type: "ReLU"
  bottom: "inception_4d/5x5_reduce"
  top: "inception_4d/5x5_reduce"
}
layer {
  name: "inception_4d/5x5"
  type: "Convolution"
  bottom: "inception_4d/5x5_reduce"
  top: "inception_4d/5x5"
  param {
    lr_mult: 1
    decay_mult: 1
  }
  param {
    lr_mult: 2
    decay_mult: 0
  }
  convolution_param {
    num_output: 64
    pad: 2
    kernel_size: 5
    weight_filler {
      type: "xavier"
      std: 0.03
    }
    bias_filler {
      type: "constant"
      value: 0.2
    }
  }
}
layer {
  name: "inception_4d/relu_5x5"
  type: "ReLU"
  bottom: "inception_4d/5x5"
  top: "inception_4d/5x5"
}
layer {
  name: "inception_4d/pool"
  type: "Pooling"
  bottom: "inception_4c/output"
  top: "inception_4d/pool"
  pooling_param {
    pool: MAX
    kernel_size: 3
    stride: 1
    pad: 1
  }
}
layer {
  name: "inception_4d/pool_proj"
  type: "Convolution"
  bottom: "inception_4d/pool"
  top: "inception_4d/pool_proj"
  param {
    lr_mult: 1
    decay_mult: 1
  }
  param {
    lr_mult: 2
    decay_mult: 0
  }
  convolution_param {
    num_output: 64
    kernel_size: 1
    weight_filler {
      type: "xavier"
      std: 0.1
    }
    bias_filler {
      type: "constant"
      value: 0.2
    }
  }
}
layer {
  name: "inception_4d/relu_pool_proj"
  type: "ReLU"
  bottom: "inception_4d/pool_proj"
  top: "inception_4d/pool_proj"
}
layer {
  name: "inception_4d/output"
  type: "Concat"
  bottom: "inception_4d/1x1"
  bottom: "inception_4d/3x3"
  bottom: "inception_4d/5x5"
  bottom: "inception_4d/pool_proj"
  top: "inception_4d/output"
}
layer {
  name: "inception_4e/1x1"
  type: "Convolution"
  bottom: "inception_4d/output"
  top: "inception_4e/1x1"
  param {
    lr_mult: 1
    decay_mult: 1
  }
  param {
    lr_mult: 2
    decay_mult: 0
  }
  convolution_param {
    num_output: 256
    kernel_size: 1
    weight_filler {
      type: "xavier"
      std: 0.03
    }
    bias_filler {
      type: "constant"
      value: 0.2
    }
  }
}
layer {
  name: "inception_4e/relu_1x1"
  type: "ReLU"
  bottom: "inception_4e/1x1"
  top: "inception_4e/1x1"
}
layer {
  name: "inception_4e/3x3_reduce"
  type: "Convolution"
  bottom: "inception_4d/output"
  top: "inception_4e/3x3_reduce"
  param {
    lr_mult: 1
    decay_mult: 1
  }
  param {
    lr_mult: 2
    decay_mult: 0
  }
  convolution_param {
    num_output: 160
    kernel_size: 1
    weight_filler {
      type: "xavier"
      std: 0.09
    }
    bias_filler {
      type: "constant"
      value: 0.2
    }
  }
}
layer {
  name: "inception_4e/relu_3x3_reduce"
  type: "ReLU"
  bottom: "inception_4e/3x3_reduce"
  top: "inception_4e/3x3_reduce"
}
layer {
  name: "inception_4e/3x3"
  type: "Convolution"
  bottom: "inception_4e/3x3_reduce"
  top: "inception_4e/3x3"
  param {
    lr_mult: 1
    decay_mult: 1
  }
  param {
    lr_mult: 2
    decay_mult: 0
  }
  convolution_param {
    num_output: 320
    pad: 1
    kernel_size: 3
    weight_filler {
      type: "xavier"
      std: 0.03
    }
    bias_filler {
      type: "constant"
      value: 0.2
    }
  }
}
layer {
  name: "inception_4e/relu_3x3"
  type: "ReLU"
  bottom: "inception_4e/3x3"
  top: "inception_4e/3x3"
}
layer {
  name: "inception_4e/5x5_reduce"
  type: "Convolution"
  bottom: "inception_4d/output"
  top: "inception_4e/5x5_reduce"
  param {
    lr_mult: 1
    decay_mult: 1
  }
  param {
    lr_mult: 2
    decay_mult: 0
  }
  convolution_param {
    num_output: 32
    kernel_size: 1
    weight_filler {
      type: "xavier"
      std: 0.2
    }
    bias_filler {
      type: "constant"
      value: 0.2
    }
  }
}
layer {
  name: "inception_4e/relu_5x5_reduce"
  type: "ReLU"
  bottom: "inception_4e/5x5_reduce"
  top: "inception_4e/5x5_reduce"
}
layer {
  name: "inception_4e/5x5"
  type: "Convolution"
  bottom: "inception_4e/5x5_reduce"
  top: "inception_4e/5x5"
  param {
    lr_mult: 1
    decay_mult: 1
  }
  param {
    lr_mult: 2
    decay_mult: 0
  }
  convolution_param {
    num_output: 128
    pad: 2
    kernel_size: 5
    weight_filler {
      type: "xavier"
      std: 0.03
    }
    bias_filler {
      type: "constant"
      value: 0.2
    }
  }
}
layer {
  name: "inception_4e/relu_5x5"
  type: "ReLU"
  bottom: "inception_4e/5x5"
  top: "inception_4e/5x5"
}
layer {
  name: "inception_4e/pool"
  type: "Pooling"
  bottom: "inception_4d/output"
  top: "inception_4e/pool"
  pooling_param {
    pool: MAX
    kernel_size: 3
    stride: 1
    pad: 1
  }
}
layer {
  name: "inception_4e/pool_proj"
  type: "Convolution"
  bottom: "inception_4e/pool"
  top: "inception_4e/pool_proj"
  param {
    lr_mult: 1
    decay_mult: 1
  }
  param {
    lr_mult: 2
    decay_mult: 0
  }
  convolution_param {
    num_output: 128
    kernel_size: 1
    weight_filler {
      type: "xavier"
      std: 0.1
    }
    bias_filler {
      type: "constant"
      value: 0.2
    }
  }
}
layer {
  name: "inception_4e/relu_pool_proj"
  type: "ReLU"
  bottom: "inception_4e/pool_proj"
  top: "inception_4e/pool_proj"
}
layer {
  name: "inception_4e/output"
  type: "Concat"
  bottom: "inception_4e/1x1"
  bottom: "inception_4e/3x3"
  bottom: "inception_4e/5x5"
  bottom: "inception_4e/pool_proj"
  top: "inception_4e/output"
}
layer {
  name: "pool4/3x3_s2"
  type: "Pooling"
  bottom: "inception_4e/output"
  top: "pool4/3x3_s2"
  pooling_param {
    pool: MAX
    kernel_size: 3
    stride: 2
  }
}
layer {
  name: "inception_5a/1x1"
  type: "Convolution"
  bottom: "pool4/3x3_s2"
  top: "inception_5a/1x1"
  param {
    lr_mult: 1
    decay_mult: 1
  }
  param {
    lr_mult: 2
    decay_mult: 0
  }
  convolution_param {
    num_output: 256
    kernel_size: 1
    weight_filler {
      type: "xavier"
      std: 0.03
    }
    bias_filler {
      type: "constant"
      value: 0.2
    }
  }
}
layer {
  name: "inception_5a/relu_1x1"
  type: "ReLU"
  bottom: "inception_5a/1x1"
  top: "inception_5a/1x1"
}
layer {
  name: "inception_5a/3x3_reduce"
  type: "Convolution"
  bottom: "pool4/3x3_s2"
  top: "inception_5a/3x3_reduce"
  param {
    lr_mult: 1
    decay_mult: 1
  }
  param {
    lr_mult: 2
    decay_mult: 0
  }
  convolution_param {
    num_output: 160
    kernel_size: 1
    weight_filler {
      type: "xavier"
      std: 0.09
    }
    bias_filler {
      type: "constant"
      value: 0.2
    }
  }
}
layer {
  name: "inception_5a/relu_3x3_reduce"
  type: "ReLU"
  bottom: "inception_5a/3x3_reduce"
  top: "inception_5a/3x3_reduce"
}
layer {
  name: "inception_5a/3x3"
  type: "Convolution"
  bottom: "inception_5a/3x3_reduce"
  top: "inception_5a/3x3"
  param {
    lr_mult: 1
    decay_mult: 1
  }
  param {
    lr_mult: 2
    decay_mult: 0
  }
  convolution_param {
    num_output: 320
    pad: 1
    kernel_size: 3
    weight_filler {
      type: "xavier"
      std: 0.03
    }
    bias_filler {
      type: "constant"
      value: 0.2
    }
  }
}
layer {
  name: "inception_5a/relu_3x3"
  type: "ReLU"
  bottom: "inception_5a/3x3"
  top: "inception_5a/3x3"
}
layer {
  name: "inception_5a/5x5_reduce"
  type: "Convolution"
  bottom: "pool4/3x3_s2"
  top: "inception_5a/5x5_reduce"
  param {
    lr_mult: 1
    decay_mult: 1
  }
  param {
    lr_mult: 2
    decay_mult: 0
  }
  convolution_param {
    num_output: 32
    kernel_size: 1
    weight_filler {
      type: "xavier"
      std: 0.2
    }
    bias_filler {
      type: "constant"
      value: 0.2
    }
  }
}
layer {
  name: "inception_5a/relu_5x5_reduce"
  type: "ReLU"
  bottom: "
I0816 12:44:07.072644 11069 net.cpp:370] Input 0 -> data
I0816 12:44:07.072677 11069 layer_factory.hpp:74] Creating layer conv1/7x7_s2
I0816 12:44:07.072691 11069 net.cpp:90] Creating Layer conv1/7x7_s2
I0816 12:44:07.072695 11069 net.cpp:410] conv1/7x7_s2 <- data
I0816 12:44:07.072700 11069 net.cpp:368] conv1/7x7_s2 -> conv1/7x7_s2
I0816 12:44:07.072707 11069 net.cpp:120] Setting up conv1/7x7_s2
I0816 12:44:07.142571 11069 net.cpp:127] Top shape: 10 64 112 112 (8028160)
I0816 12:44:07.142602 11069 layer_factory.hpp:74] Creating layer conv1/relu_7x7
I0816 12:44:07.142612 11069 net.cpp:90] Creating Layer conv1/relu_7x7
I0816 12:44:07.142616 11069 net.cpp:410] conv1/relu_7x7 <- conv1/7x7_s2
I0816 12:44:07.142621 11069 net.cpp:357] conv1/relu_7x7 -> conv1/7x7_s2 (in-place)
I0816 12:44:07.142628 11069 net.cpp:120] Setting up conv1/relu_7x7
I0816 12:44:07.143057 11069 net.cpp:127] Top shape: 10 64 112 112 (8028160)
I0816 12:44:07.143065 11069 layer_factory.hpp:74] Creating layer pool1/3x3_s2
I0816 12:44:07.143072 11069 net.cpp:90] Creating Layer pool1/3x3_s2
I0816 12:44:07.143075 11069 net.cpp:410] pool1/3x3_s2 <- conv1/7x7_s2
I0816 12:44:07.143080 11069 net.cpp:368] pool1/3x3_s2 -> pool1/3x3_s2
I0816 12:44:07.143086 11069 net.cpp:120] Setting up pool1/3x3_s2
I0816 12:44:07.143506 11069 net.cpp:127] Top shape: 10 64 56 56 (2007040)
I0816 12:44:07.143512 11069 layer_factory.hpp:74] Creating layer pool1/norm1
I0816 12:44:07.143523 11069 net.cpp:90] Creating Layer pool1/norm1
I0816 12:44:07.143527 11069 net.cpp:410] pool1/norm1 <- pool1/3x3_s2
I0816 12:44:07.143532 11069 net.cpp:368] pool1/norm1 -> pool1/norm1
I0816 12:44:07.143537 11069 net.cpp:120] Setting up pool1/norm1
I0816 12:44:07.143542 11069 net.cpp:127] Top shape: 10 64 56 56 (2007040)
I0816 12:44:07.143544 11069 layer_factory.hpp:74] Creating layer conv2/3x3_reduce
I0816 12:44:07.143553 11069 net.cpp:90] Creating Layer conv2/3x3_reduce
I0816 12:44:07.143556 11069 net.cpp:410] conv2/3x3_reduce <- pool1/norm1
I0816 12:44:07.143561 11069 net.cpp:368] conv2/3x3_reduce -> conv2/3x3_reduce
I0816 12:44:07.143568 11069 net.cpp:120] Setting up conv2/3x3_reduce
I0816 12:44:07.144908 11069 net.cpp:127] Top shape: 10 64 56 56 (2007040)
I0816 12:44:07.144920 11069 layer_factory.hpp:74] Creating layer conv2/relu_3x3_reduce
I0816 12:44:07.144925 11069 net.cpp:90] Creating Layer conv2/relu_3x3_reduce
I0816 12:44:07.144929 11069 net.cpp:410] conv2/relu_3x3_reduce <- conv2/3x3_reduce
I0816 12:44:07.144934 11069 net.cpp:357] conv2/relu_3x3_reduce -> conv2/3x3_reduce (in-place)
I0816 12:44:07.144939 11069 net.cpp:120] Setting up conv2/relu_3x3_reduce
I0816 12:44:07.145356 11069 net.cpp:127] Top shape: 10 64 56 56 (2007040)
I0816 12:44:07.145370 11069 layer_factory.hpp:74] Creating layer conv2/3x3
I0816 12:44:07.145376 11069 net.cpp:90] Creating Layer conv2/3x3
I0816 12:44:07.145380 11069 net.cpp:410] conv2/3x3 <- conv2/3x3_reduce
I0816 12:44:07.145385 11069 net.cpp:368] conv2/3x3 -> conv2/3x3
I0816 12:44:07.145391 11069 net.cpp:120] Setting up conv2/3x3
I0816 12:44:07.147310 11069 net.cpp:127] Top shape: 10 192 56 56 (6021120)
I0816 12:44:07.147321 11069 layer_factory.hpp:74] Creating layer conv2/relu_3x3
I0816 12:44:07.147326 11069 net.cpp:90] Creating Layer conv2/relu_3x3
I0816 12:44:07.147330 11069 net.cpp:410] conv2/relu_3x3 <- conv2/3x3
I0816 12:44:07.147336 11069 net.cpp:357] conv2/relu_3x3 -> conv2/3x3 (in-place)
I0816 12:44:07.147339 11069 net.cpp:120] Setting up conv2/relu_3x3
I0816 12:44:07.147761 11069 net.cpp:127] Top shape: 10 192 56 56 (6021120)
I0816 12:44:07.147769 11069 layer_factory.hpp:74] Creating layer conv2/norm2
I0816 12:44:07.147776 11069 net.cpp:90] Creating Layer conv2/norm2
I0816 12:44:07.147779 11069 net.cpp:410] conv2/norm2 <- conv2/3x3
I0816 12:44:07.147784 11069 net.cpp:368] conv2/norm2 -> conv2/norm2
I0816 12:44:07.147789 11069 net.cpp:120] Setting up conv2/norm2
I0816 12:44:07.147794 11069 net.cpp:127] Top shape: 10 192 56 56 (6021120)
I0816 12:44:07.147797 11069 layer_factory.hpp:74] Creating layer pool2/3x3_s2
I0816 12:44:07.147802 11069 net.cpp:90] Creating Layer pool2/3x3_s2
I0816 12:44:07.147805 11069 net.cpp:410] pool2/3x3_s2 <- conv2/norm2
I0816 12:44:07.147809 11069 net.cpp:368] pool2/3x3_s2 -> pool2/3x3_s2
I0816 12:44:07.147814 11069 net.cpp:120] Setting up pool2/3x3_s2
I0816 12:44:07.148239 11069 net.cpp:127] Top shape: 10 192 28 28 (1505280)
I0816 12:44:07.148247 11069 layer_factory.hpp:74] Creating layer pool2/3x3_s2_pool2/3x3_s2_0_split
I0816 12:44:07.148253 11069 net.cpp:90] Creating Layer pool2/3x3_s2_pool2/3x3_s2_0_split
I0816 12:44:07.148257 11069 net.cpp:410] pool2/3x3_s2_pool2/3x3_s2_0_split <- pool2/3x3_s2
I0816 12:44:07.148260 11069 net.cpp:368] pool2/3x3_s2_pool2/3x3_s2_0_split -> pool2/3x3_s2_pool2/3x3_s2_0_split_0
I0816 12:44:07.148267 11069 net.cpp:368] pool2/3x3_s2_pool2/3x3_s2_0_split -> pool2/3x3_s2_pool2/3x3_s2_0_split_1
I0816 12:44:07.148272 11069 net.cpp:368] pool2/3x3_s2_pool2/3x3_s2_0_split -> pool2/3x3_s2_pool2/3x3_s2_0_split_2
I0816 12:44:07.148278 11069 net.cpp:368] pool2/3x3_s2_pool2/3x3_s2_0_split -> pool2/3x3_s2_pool2/3x3_s2_0_split_3
I0816 12:44:07.148283 11069 net.cpp:120] Setting up pool2/3x3_s2_pool2/3x3_s2_0_split
I0816 12:44:07.148288 11069 net.cpp:127] Top shape: 10 192 28 28 (1505280)
I0816 12:44:07.148291 11069 net.cpp:127] Top shape: 10 192 28 28 (1505280)
I0816 12:44:07.148294 11069 net.cpp:127] Top shape: 10 192 28 28 (1505280)
I0816 12:44:07.148298 11069 net.cpp:127] Top shape: 10 192 28 28 (1505280)
I0816 12:44:07.148301 11069 layer_factory.hpp:74] Creating layer inception_3a/1x1
I0816 12:44:07.148308 11069 net.cpp:90] Creating Layer inception_3a/1x1
I0816 12:44:07.148311 11069 net.cpp:410] inception_3a/1x1 <- pool2/3x3_s2_pool2/3x3_s2_0_split_0
I0816 12:44:07.148316 11069 net.cpp:368] inception_3a/1x1 -> inception_3a/1x1
I0816 12:44:07.148321 11069 net.cpp:120] Setting up inception_3a/1x1
I0816 12:44:07.149777 11069 net.cpp:127] Top shape: 10 64 28 28 (501760)
I0816 12:44:07.149788 11069 layer_factory.hpp:74] Creating layer inception_3a/relu_1x1
I0816 12:44:07.149793 11069 net.cpp:90] Creating Layer inception_3a/relu_1x1
I0816 12:44:07.149797 11069 net.cpp:410] inception_3a/relu_1x1 <- inception_3a/1x1
I0816 12:44:07.149802 11069 net.cpp:357] inception_3a/relu_1x1 -> inception_3a/1x1 (in-place)
I0816 12:44:07.149807 11069 net.cpp:120] Setting up inception_3a/relu_1x1
I0816 12:44:07.150243 11069 net.cpp:127] Top shape: 10 64 28 28 (501760)
I0816 12:44:07.150251 11069 layer_factory.hpp:74] Creating layer inception_3a/3x3_reduce
I0816 12:44:07.150259 11069 net.cpp:90] Creating Layer inception_3a/3x3_reduce
I0816 12:44:07.150262 11069 net.cpp:410] inception_3a/3x3_reduce <- pool2/3x3_s2_pool2/3x3_s2_0_split_1
I0816 12:44:07.150269 11069 net.cpp:368] inception_3a/3x3_reduce -> inception_3a/3x3_reduce
I0816 12:44:07.150277 11069 net.cpp:120] Setting up inception_3a/3x3_reduce
I0816 12:44:07.151695 11069 net.cpp:127] Top shape: 10 96 28 28 (752640)
I0816 12:44:07.151705 11069 layer_factory.hpp:74] Creating layer inception_3a/relu_3x3_reduce
I0816 12:44:07.151711 11069 net.cpp:90] Creating Layer inception_3a/relu_3x3_reduce
I0816 12:44:07.151715 11069 net.cpp:410] inception_3a/relu_3x3_reduce <- inception_3a/3x3_reduce
I0816 12:44:07.151721 11069 net.cpp:357] inception_3a/relu_3x3_reduce -> inception_3a/3x3_reduce (in-place)
I0816 12:44:07.151725 11069 net.cpp:120] Setting up inception_3a/relu_3x3_reduce
I0816 12:44:07.152225 11069 net.cpp:127] Top shape: 10 96 28 28 (752640)
I0816 12:44:07.152233 11069 layer_factory.hpp:74] Creating layer inception_3a/3x3
I0816 12:44:07.152240 11069 net.cpp:90] Creating Layer inception_3a/3x3
I0816 12:44:07.152245 11069 net.cpp:410] inception_3a/3x3 <- inception_3a/3x3_reduce
I0816 12:44:07.152251 11069 net.cpp:368] inception_3a/3x3 -> inception_3a/3x3
I0816 12:44:07.152256 11069 net.cpp:120] Setting up inception_3a/3x3
I0816 12:44:07.154165 11069 net.cpp:127] Top shape: 10 128 28 28 (1003520)
I0816 12:44:07.154175 11069 layer_factory.hpp:74] Creating layer inception_3a/relu_3x3
I0816 12:44:07.154183 11069 net.cpp:90] Creating Layer inception_3a/relu_3x3
I0816 12:44:07.154186 11069 net.cpp:410] inception_3a/relu_3x3 <- inception_3a/3x3
I0816 12:44:07.154191 11069 net.cpp:357] inception_3a/relu_3x3 -> inception_3a/3x3 (in-place)
I0816 12:44:07.154196 11069 net.cpp:120] Setting up inception_3a/relu_3x3
I0816 12:44:07.154638 11069 net.cpp:127] Top shape: 10 128 28 28 (1003520)
I0816 12:44:07.154645 11069 layer_factory.hpp:74] Creating layer inception_3a/5x5_reduce
I0816 12:44:07.154651 11069 net.cpp:90] Creating Layer inception_3a/5x5_reduce
I0816 12:44:07.154655 11069 net.cpp:410] inception_3a/5x5_reduce <- pool2/3x3_s2_pool2/3x3_s2_0_split_2
I0816 12:44:07.154660 11069 net.cpp:368] inception_3a/5x5_reduce -> inception_3a/5x5_reduce
I0816 12:44:07.154666 11069 net.cpp:120] Setting up inception_3a/5x5_reduce
I0816 12:44:07.156059 11069 net.cpp:127] Top shape: 10 16 28 28 (125440)
I0816 12:44:07.156069 11069 layer_factory.hpp:74] Creating layer inception_3a/relu_5x5_reduce
I0816 12:44:07.156075 11069 net.cpp:90] Creating Layer inception_3a/relu_5x5_reduce
I0816 12:44:07.156077 11069 net.cpp:410] inception_3a/relu_5x5_reduce <- inception_3a/5x5_reduce
I0816 12:44:07.156082 11069 net.cpp:357] inception_3a/relu_5x5_reduce -> inception_3a/5x5_reduce (in-place)
I0816 12:44:07.156087 11069 net.cpp:120] Setting up inception_3a/relu_5x5_reduce
I0816 12:44:07.156525 11069 net.cpp:127] Top shape: 10 16 28 28 (125440)
I0816 12:44:07.156534 11069 layer_factory.hpp:74] Creating layer inception_3a/5x5
I0816 12:44:07.156540 11069 net.cpp:90] Creating Layer inception_3a/5x5
I0816 12:44:07.156544 11069 net.cpp:410] inception_3a/5x5 <- inception_3a/5x5_reduce
I0816 12:44:07.156549 11069 net.cpp:368] inception_3a/5x5 -> inception_3a/5x5
I0816 12:44:07.156556 11069 net.cpp:120] Setting up inception_3a/5x5
I0816 12:44:07.158090 11069 net.cpp:127] Top shape: 10 32 28 28 (250880)
I0816 12:44:07.158102 11069 layer_factory.hpp:74] Creating layer inception_3a/relu_5x5
I0816 12:44:07.158107 11069 net.cpp:90] Creating Layer inception_3a/relu_5x5
I0816 12:44:07.158112 11069 net.cpp:410] inception_3a/relu_5x5 <- inception_3a/5x5
I0816 12:44:07.158116 11069 net.cpp:357] inception_3a/relu_5x5 -> inception_3a/5x5 (in-place)
I0816 12:44:07.158120 11069 net.cpp:120] Setting up inception_3a/relu_5x5
I0816 12:44:07.158562 11069 net.cpp:127] Top shape: 10 32 28 28 (250880)
I0816 12:44:07.158571 11069 layer_factory.hpp:74] Creating layer inception_3a/pool
I0816 12:44:07.158574 11069 layer_factory.cpp:60] CUDNN does not support padding or multiple tops. Using Caffe's own pooling layer.
I0816 12:44:07.158581 11069 net.cpp:90] Creating Layer inception_3a/pool
I0816 12:44:07.158583 11069 net.cpp:410] inception_3a/pool <- pool2/3x3_s2_pool2/3x3_s2_0_split_3
I0816 12:44:07.158588 11069 net.cpp:368] inception_3a/pool -> inception_3a/pool
I0816 12:44:07.158596 11069 net.cpp:120] Setting up inception_3a/pool
I0816 12:44:07.158603 11069 net.cpp:127] Top shape: 10 192 28 28 (1505280)
I0816 12:44:07.158607 11069 layer_factory.hpp:74] Creating layer inception_3a/pool_proj
I0816 12:44:07.158612 11069 net.cpp:90] Creating Layer inception_3a/pool_proj
I0816 12:44:07.158615 11069 net.cpp:410] inception_3a/pool_proj <- inception_3a/pool
I0816 12:44:07.158622 11069 net.cpp:368] inception_3a/pool_proj -> inception_3a/pool_proj
I0816 12:44:07.158627 11069 net.cpp:120] Setting up inception_3a/pool_proj
I0816 12:44:07.160171 11069 net.cpp:127] Top shape: 10 32 28 28 (250880)
I0816 12:44:07.160184 11069 layer_factory.hpp:74] Creating layer inception_3a/relu_pool_proj
I0816 12:44:07.160189 11069 net.cpp:90] Creating Layer inception_3a/relu_pool_proj
I0816 12:44:07.160193 11069 net.cpp:410] inception_3a/relu_pool_proj <- inception_3a/pool_proj
I0816 12:44:07.160198 11069 net.cpp:357] inception_3a/relu_pool_proj -> inception_3a/pool_proj (in-place)
I0816 12:44:07.160203 11069 net.cpp:120] Setting up inception_3a/relu_pool_proj
I0816 12:44:07.160640 11069 net.cpp:127] Top shape: 10 32 28 28 (250880)
I0816 12:44:07.160648 11069 layer_factory.hpp:74] Creating layer inception_3a/output
I0816 12:44:07.160655 11069 net.cpp:90] Creating Layer inception_3a/output
I0816 12:44:07.160657 11069 net.cpp:410] inception_3a/output <- inception_3a/1x1
I0816 12:44:07.160661 11069 net.cpp:410] inception_3a/output <- inception_3a/3x3
I0816 12:44:07.160665 11069 net.cpp:410] inception_3a/output <- inception_3a/5x5
I0816 12:44:07.160668 11069 net.cpp:410] inception_3a/output <- inception_3a/pool_proj
I0816 12:44:07.160673 11069 net.cpp:368] inception_3a/output -> inception_3a/output
I0816 12:44:07.160679 11069 net.cpp:120] Setting up inception_3a/output
I0816 12:44:07.160691 11069 net.cpp:127] Top shape: 10 256 28 28 (2007040)
I0816 12:44:07.160694 11069 layer_factory.hpp:74] Creating layer inception_3a/output_inception_3a/output_0_split
I0816 12:44:07.160699 11069 net.cpp:90] Creating Layer inception_3a/output_inception_3a/output_0_split
I0816 12:44:07.160702 11069 net.cpp:410] inception_3a/output_inception_3a/output_0_split <- inception_3a/output
I0816 12:44:07.160706 11069 net.cpp:368] inception_3a/output_inception_3a/output_0_split -> inception_3a/output_inception_3a/output_0_split_0
I0816 12:44:07.160712 11069 net.cpp:368] inception_3a/output_inception_3a/output_0_split -> inception_3a/output_inception_3a/output_0_split_1
I0816 12:44:07.160717 11069 net.cpp:368] inception_3a/output_inception_3a/output_0_split -> inception_3a/output_inception_3a/output_0_split_2
I0816 12:44:07.160722 11069 net.cpp:368] inception_3a/output_inception_3a/output_0_split -> inception_3a/output_inception_3a/output_0_split_3
I0816 12:44:07.160725 11069 net.cpp:120] Setting up inception_3a/output_inception_3a/output_0_split
I0816 12:44:07.160732 11069 net.cpp:127] Top shape: 10 256 28 28 (2007040)
I0816 12:44:07.160734 11069 net.cpp:127] Top shape: 10 256 28 28 (2007040)
I0816 12:44:07.160737 11069 net.cpp:127] Top shape: 10 256 28 28 (2007040)
I0816 12:44:07.160742 11069 net.cpp:127] Top shape: 10 256 28 28 (2007040)
I0816 12:44:07.160744 11069 layer_factory.hpp:74] Creating layer inception_3b/1x1
I0816 12:44:07.160750 11069 net.cpp:90] Creating Layer inception_3b/1x1
I0816 12:44:07.160753 11069 net.cpp:410] inception_3b/1x1 <- inception_3a/output_inception_3a/output_0_split_0
I0816 12:44:07.160759 11069 net.cpp:368] inception_3b/1x1 -> inception_3b/1x1
I0816 12:44:07.160765 11069 net.cpp:120] Setting up inception_3b/1x1
I0816 12:44:07.162336 11069 net.cpp:127] Top shape: 10 128 28 28 (1003520)
I0816 12:44:07.162348 11069 layer_factory.hpp:74] Creating layer inception_3b/relu_1x1
I0816 12:44:07.162353 11069 net.cpp:90] Creating Layer inception_3b/relu_1x1
I0816 12:44:07.162358 11069 net.cpp:410] inception_3b/relu_1x1 <- inception_3b/1x1
I0816 12:44:07.162363 11069 net.cpp:357] inception_3b/relu_1x1 -> inception_3b/1x1 (in-place)
I0816 12:44:07.162367 11069 net.cpp:120] Setting up inception_3b/relu_1x1
I0816 12:44:07.162817 11069 net.cpp:127] Top shape: 10 128 28 28 (1003520)
I0816 12:44:07.162824 11069 layer_factory.hpp:74] Creating layer inception_3b/3x3_reduce
I0816 12:44:07.162832 11069 net.cpp:90] Creating Layer inception_3b/3x3_reduce
I0816 12:44:07.162835 11069 net.cpp:410] inception_3b/3x3_reduce <- inception_3a/output_inception_3a/output_0_split_1
I0816 12:44:07.162842 11069 net.cpp:368] inception_3b/3x3_reduce -> inception_3b/3x3_reduce
I0816 12:44:07.162847 11069 net.cpp:120] Setting up inception_3b/3x3_reduce
I0816 12:44:07.164418 11069 net.cpp:127] Top shape: 10 128 28 28 (1003520)
I0816 12:44:07.164428 11069 layer_factory.hpp:74] Creating layer inception_3b/relu_3x3_reduce
I0816 12:44:07.164435 11069 net.cpp:90] Creating Layer inception_3b/relu_3x3_reduce
I0816 12:44:07.164439 11069 net.cpp:410] inception_3b/relu_3x3_reduce <- inception_3b/3x3_reduce
I0816 12:44:07.164443 11069 net.cpp:357] inception_3b/relu_3x3_reduce -> inception_3b/3x3_reduce (in-place)
I0816 12:44:07.164448 11069 net.cpp:120] Setting up inception_3b/relu_3x3_reduce
I0816 12:44:07.164896 11069 net.cpp:127] Top shape: 10 128 28 28 (1003520)
I0816 12:44:07.164903 11069 layer_factory.hpp:74] Creating layer inception_3b/3x3
I0816 12:44:07.164911 11069 net.cpp:90] Creating Layer inception_3b/3x3
I0816 12:44:07.164916 11069 net.cpp:410] inception_3b/3x3 <- inception_3b/3x3_reduce
I0816 12:44:07.164919 11069 net.cpp:368] inception_3b/3x3 -> inception_3b/3x3
I0816 12:44:07.164927 11069 net.cpp:120] Setting up inception_3b/3x3
I0816 12:44:07.167532 11069 net.cpp:127] Top shape: 10 192 28 28 (1505280)
I0816 12:44:07.167543 11069 layer_factory.hpp:74] Creating layer inception_3b/relu_3x3
I0816 12:44:07.167549 11069 net.cpp:90] Creating Layer inception_3b/relu_3x3
I0816 12:44:07.167552 11069 net.cpp:410] inception_3b/relu_3x3 <- inception_3b/3x3
I0816 12:44:07.167558 11069 net.cpp:357] inception_3b/relu_3x3 -> inception_3b/3x3 (in-place)
I0816 12:44:07.167563 11069 net.cpp:120] Setting up inception_3b/relu_3x3
I0816 12:44:07.168012 11069 net.cpp:127] Top shape: 10 192 28 28 (1505280)
I0816 12:44:07.168020 11069 layer_factory.hpp:74] Creating layer inception_3b/5x5_reduce
I0816 12:44:07.168031 11069 net.cpp:90] Creating Layer inception_3b/5x5_reduce
I0816 12:44:07.168035 11069 net.cpp:410] inception_3b/5x5_reduce <- inception_3a/output_inception_3a/output_0_split_2
I0816 12:44:07.168040 11069 net.cpp:368] inception_3b/5x5_reduce -> inception_3b/5x5_reduce
I0816 12:44:07.168046 11069 net.cpp:120] Setting up inception_3b/5x5_reduce
I0816 12:44:07.169451 11069 net.cpp:127] Top shape: 10 32 28 28 (250880)
I0816 12:44:07.169461 11069 layer_factory.hpp:74] Creating layer inception_3b/relu_5x5_reduce
I0816 12:44:07.169466 11069 net.cpp:90] Creating Layer inception_3b/relu_5x5_reduce
I0816 12:44:07.169471 11069 net.cpp:410] inception_3b/relu_5x5_reduce <- inception_3b/5x5_reduce
I0816 12:44:07.169474 11069 net.cpp:357] inception_3b/relu_5x5_reduce -> inception_3b/5x5_reduce (in-place)
I0816 12:44:07.169479 11069 net.cpp:120] Setting up inception_3b/relu_5x5_reduce
I0816 12:44:07.169932 11069 net.cpp:127] Top shape: 10 32 28 28 (250880)
I0816 12:44:07.169940 11069 layer_factory.hpp:74] Creating layer inception_3b/5x5
I0816 12:44:07.169948 11069 net.cpp:90] Creating Layer inception_3b/5x5
I0816 12:44:07.169951 11069 net.cpp:410] inception_3b/5x5 <- inception_3b/5x5_reduce
I0816 12:44:07.169956 11069 net.cpp:368] inception_3b/5x5 -> inception_3b/5x5
I0816 12:44:07.169962 11069 net.cpp:120] Setting up inception_3b/5x5
I0816 12:44:07.171816 11069 net.cpp:127] Top shape: 10 96 28 28 (752640)
I0816 12:44:07.171828 11069 layer_factory.hpp:74] Creating layer inception_3b/relu_5x5
I0816 12:44:07.171833 11069 net.cpp:90] Creating Layer inception_3b/relu_5x5
I0816 12:44:07.171836 11069 net.cpp:410] inception_3b/relu_5x5 <- inception_3b/5x5
I0816 12:44:07.171841 11069 net.cpp:357] inception_3b/relu_5x5 -> inception_3b/5x5 (in-place)
I0816 12:44:07.171845 11069 net.cpp:120] Setting up inception_3b/relu_5x5
I0816 12:44:07.172301 11069 net.cpp:127] Top shape: 10 96 28 28 (752640)
I0816 12:44:07.172313 11069 layer_factory.hpp:74] Creating layer inception_3b/pool
I0816 12:44:07.172318 11069 layer_factory.cpp:60] CUDNN does not support padding or multiple tops. Using Caffe's own pooling layer.
I0816 12:44:07.172323 11069 net.cpp:90] Creating Layer inception_3b/pool
I0816 12:44:07.172327 11069 net.cpp:410] inception_3b/pool <- inception_3a/output_inception_3a/output_0_split_3
I0816 12:44:07.172333 11069 net.cpp:368] inception_3b/pool -> inception_3b/pool
I0816 12:44:07.172338 11069 net.cpp:120] Setting up inception_3b/pool
I0816 12:44:07.172344 11069 net.cpp:127] Top shape: 10 256 28 28 (2007040)
I0816 12:44:07.172348 11069 layer_factory.hpp:74] Creating layer inception_3b/pool_proj
I0816 12:44:07.172353 11069 net.cpp:90] Creating Layer inception_3b/pool_proj
I0816 12:44:07.172356 11069 net.cpp:410] inception_3b/pool_proj <- inception_3b/pool
I0816 12:44:07.172363 11069 net.cpp:368] inception_3b/pool_proj -> inception_3b/pool_proj
I0816 12:44:07.172368 11069 net.cpp:120] Setting up inception_3b/pool_proj
I0816 12:44:07.173907 11069 net.cpp:127] Top shape: 10 64 28 28 (501760)
I0816 12:44:07.173918 11069 layer_factory.hpp:74] Creating layer inception_3b/relu_pool_proj
I0816 12:44:07.173923 11069 net.cpp:90] Creating Layer inception_3b/relu_pool_proj
I0816 12:44:07.173928 11069 net.cpp:410] inception_3b/relu_pool_proj <- inception_3b/pool_proj
I0816 12:44:07.173933 11069 net.cpp:357] inception_3b/relu_pool_proj -> inception_3b/pool_proj (in-place)
I0816 12:44:07.173936 11069 net.cpp:120] Setting up inception_3b/relu_pool_proj
I0816 12:44:07.174399 11069 net.cpp:127] Top shape: 10 64 28 28 (501760)
I0816 12:44:07.174407 11069 layer_factory.hpp:74] Creating layer inception_3b/output
I0816 12:44:07.174414 11069 net.cpp:90] Creating Layer inception_3b/output
I0816 12:44:07.174417 11069 net.cpp:410] inception_3b/output <- inception_3b/1x1
I0816 12:44:07.174422 11069 net.cpp:410] inception_3b/output <- inception_3b/3x3
I0816 12:44:07.174425 11069 net.cpp:410] inception_3b/output <- inception_3b/5x5
I0816 12:44:07.174429 11069 net.cpp:410] inception_3b/output <- inception_3b/pool_proj
I0816 12:44:07.174433 11069 net.cpp:368] inception_3b/output -> inception_3b/output
I0816 12:44:07.174438 11069 net.cpp:120] Setting up inception_3b/output
I0816 12:44:07.174443 11069 net.cpp:127] Top shape: 10 480 28 28 (3763200)
I0816 12:44:07.174448 11069 layer_factory.hpp:74] Creating layer pool3/3x3_s2
I0816 12:44:07.174451 11069 net.cpp:90] Creating Layer pool3/3x3_s2
I0816 12:44:07.174454 11069 net.cpp:410] pool3/3x3_s2 <- inception_3b/output
I0816 12:44:07.174459 11069 net.cpp:368] pool3/3x3_s2 -> pool3/3x3_s2
I0816 12:44:07.174468 11069 net.cpp:120] Setting up pool3/3x3_s2
I0816 12:44:07.174962 11069 net.cpp:127] Top shape: 10 480 14 14 (940800)
I0816 12:44:07.174970 11069 layer_factory.hpp:74] Creating layer pool3/3x3_s2_pool3/3x3_s2_0_split
I0816 12:44:07.174976 11069 net.cpp:90] Creating Layer pool3/3x3_s2_pool3/3x3_s2_0_split
I0816 12:44:07.174979 11069 net.cpp:410] pool3/3x3_s2_pool3/3x3_s2_0_split <- pool3/3x3_s2
I0816 12:44:07.174984 11069 net.cpp:368] pool3/3x3_s2_pool3/3x3_s2_0_split -> pool3/3x3_s2_pool3/3x3_s2_0_split_0
I0816 12:44:07.174990 11069 net.cpp:368] pool3/3x3_s2_pool3/3x3_s2_0_split -> pool3/3x3_s2_pool3/3x3_s2_0_split_1
I0816 12:44:07.174995 11069 net.cpp:368] pool3/3x3_s2_pool3/3x3_s2_0_split -> pool3/3x3_s2_pool3/3x3_s2_0_split_2
I0816 12:44:07.174999 11069 net.cpp:368] pool3/3x3_s2_pool3/3x3_s2_0_split -> pool3/3x3_s2_pool3/3x3_s2_0_split_3
I0816 12:44:07.175004 11069 net.cpp:120] Setting up pool3/3x3_s2_pool3/3x3_s2_0_split
I0816 12:44:07.175009 11069 net.cpp:127] Top shape: 10 480 14 14 (940800)
I0816 12:44:07.175012 11069 net.cpp:127] Top shape: 10 480 14 14 (940800)
I0816 12:44:07.175016 11069 net.cpp:127] Top shape: 10 480 14 14 (940800)
I0816 12:44:07.175019 11069 net.cpp:127] Top shape: 10 480 14 14 (940800)
I0816 12:44:07.175022 11069 layer_factory.hpp:74] Creating layer inception_4a/1x1
I0816 12:44:07.175029 11069 net.cpp:90] Creating Layer inception_4a/1x1
I0816 12:44:07.175035 11069 net.cpp:410] inception_4a/1x1 <- pool3/3x3_s2_pool3/3x3_s2_0_split_0
I0816 12:44:07.175040 11069 net.cpp:368] inception_4a/1x1 -> inception_4a/1x1
I0816 12:44:07.175046 11069 net.cpp:120] Setting up inception_4a/1x1
I0816 12:44:07.177067 11069 net.cpp:127] Top shape: 10 192 14 14 (376320)
I0816 12:44:07.177078 11069 layer_factory.hpp:74] Creating layer inception_4a/relu_1x1
I0816 12:44:07.177083 11069 net.cpp:90] Creating Layer inception_4a/relu_1x1
I0816 12:44:07.177086 11069 net.cpp:410] inception_4a/relu_1x1 <- inception_4a/1x1
I0816 12:44:07.177090 11069 net.cpp:357] inception_4a/relu_1x1 -> inception_4a/1x1 (in-place)
I0816 12:44:07.177095 11069 net.cpp:120] Setting up inception_4a/relu_1x1
I0816 12:44:07.177561 11069 net.cpp:127] Top shape: 10 192 14 14 (376320)
I0816 12:44:07.177568 11069 layer_factory.hpp:74] Creating layer inception_4a/3x3_reduce
I0816 12:44:07.177575 11069 net.cpp:90] Creating Layer inception_4a/3x3_reduce
I0816 12:44:07.177579 11069 net.cpp:410] inception_4a/3x3_reduce <- pool3/3x3_s2_pool3/3x3_s2_0_split_1
I0816 12:44:07.177584 11069 net.cpp:368] inception_4a/3x3_reduce -> inception_4a/3x3_reduce
I0816 12:44:07.177590 11069 net.cpp:120] Setting up inception_4a/3x3_reduce
I0816 12:44:07.179232 11069 net.cpp:127] Top shape: 10 96 14 14 (188160)
I0816 12:44:07.179247 11069 layer_factory.hpp:74] Creating layer inception_4a/relu_3x3_reduce
I0816 12:44:07.179252 11069 net.cpp:90] Creating Layer inception_4a/relu_3x3_reduce
I0816 12:44:07.179256 11069 net.cpp:410] inception_4a/relu_3x3_reduce <- inception_4a/3x3_reduce
I0816 12:44:07.179260 11069 net.cpp:357] inception_4a/relu_3x3_reduce -> inception_4a/3x3_reduce (in-place)
I0816 12:44:07.179265 11069 net.cpp:120] Setting up inception_4a/relu_3x3_reduce
I0816 12:44:07.179730 11069 net.cpp:127] Top shape: 10 96 14 14 (188160)
I0816 12:44:07.179738 11069 layer_factory.hpp:74] Creating layer inception_4a/3x3
I0816 12:44:07.179745 11069 net.cpp:90] Creating Layer inception_4a/3x3
I0816 12:44:07.179749 11069 net.cpp:410] inception_4a/3x3 <- inception_4a/3x3_reduce
I0816 12:44:07.179754 11069 net.cpp:368] inception_4a/3x3 -> inception_4a/3x3
I0816 12:44:07.179759 11069 net.cpp:120] Setting up inception_4a/3x3
I0816 12:44:07.182206 11069 net.cpp:127] Top shape: 10 208 14 14 (407680)
I0816 12:44:07.182217 11069 layer_factory.hpp:74] Creating layer inception_4a/relu_3x3
I0816 12:44:07.182222 11069 net.cpp:90] Creating Layer inception_4a/relu_3x3
I0816 12:44:07.182226 11069 net.cpp:410] inception_4a/relu_3x3 <- inception_4a/3x3
I0816 12:44:07.182230 11069 net.cpp:357] inception_4a/relu_3x3 -> inception_4a/3x3 (in-place)
I0816 12:44:07.182235 11069 net.cpp:120] Setting up inception_4a/relu_3x3
I0816 12:44:07.182701 11069 net.cpp:127] Top shape: 10 208 14 14 (407680)
I0816 12:44:07.182709 11069 layer_factory.hpp:74] Creating layer inception_4a/5x5_reduce
I0816 12:44:07.182718 11069 net.cpp:90] Creating Layer inception_4a/5x5_reduce
I0816 12:44:07.182720 11069 net.cpp:410] inception_4a/5x5_reduce <- pool3/3x3_s2_pool3/3x3_s2_0_split_2
I0816 12:44:07.182725 11069 net.cpp:368] inception_4a/5x5_reduce -> inception_4a/5x5_reduce
I0816 12:44:07.182731 11069 net.cpp:120] Setting up inception_4a/5x5_reduce
I0816 12:44:07.184253 11069 net.cpp:127] Top shape: 10 16 14 14 (31360)
I0816 12:44:07.184263 11069 layer_factory.hpp:74] Creating layer inception_4a/relu_5x5_reduce
I0816 12:44:07.184269 11069 net.cpp:90] Creating Layer inception_4a/relu_5x5_reduce
I0816 12:44:07.184273 11069 net.cpp:410] inception_4a/relu_5x5_reduce <- inception_4a/5x5_reduce
I0816 12:44:07.184278 11069 net.cpp:357] inception_4a/relu_5x5_reduce -> inception_4a/5x5_reduce (in-place)
I0816 12:44:07.184283 11069 net.cpp:120] Setting up inception_4a/relu_5x5_reduce
I0816 12:44:07.184811 11069 net.cpp:127] Top shape: 10 16 14 14 (31360)
I0816 12:44:07.184819 11069 layer_factory.hpp:74] Creating layer inception_4a/5x5
I0816 12:44:07.184826 11069 net.cpp:90] Creating Layer inception_4a/5x5
I0816 12:44:07.184830 11069 net.cpp:410] inception_4a/5x5 <- inception_4a/5x5_reduce
I0816 12:44:07.184839 11069 net.cpp:368] inception_4a/5x5 -> inception_4a/5x5
I0816 12:44:07.184845 11069 net.cpp:120] Setting up inception_4a/5x5
I0816 12:44:07.186455 11069 net.cpp:127] Top shape: 10 48 14 14 (94080)
I0816 12:44:07.186467 11069 layer_factory.hpp:74] Creating layer inception_4a/relu_5x5
I0816 12:44:07.186473 11069 net.cpp:90] Creating Layer inception_4a/relu_5x5
I0816 12:44:07.186477 11069 net.cpp:410] inception_4a/relu_5x5 <- inception_4a/5x5
I0816 12:44:07.186482 11069 net.cpp:357] inception_4a/relu_5x5 -> inception_4a/5x5 (in-place)
I0816 12:44:07.186487 11069 net.cpp:120] Setting up inception_4a/relu_5x5
I0816 12:44:07.186955 11069 net.cpp:127] Top shape: 10 48 14 14 (94080)
I0816 12:44:07.186964 11069 layer_factory.hpp:74] Creating layer inception_4a/pool
I0816 12:44:07.186969 11069 layer_factory.cpp:60] CUDNN does not support padding or multiple tops. Using Caffe's own pooling layer.
I0816 12:44:07.186975 11069 net.cpp:90] Creating Layer inception_4a/pool
I0816 12:44:07.186978 11069 net.cpp:410] inception_4a/pool <- pool3/3x3_s2_pool3/3x3_s2_0_split_3
I0816 12:44:07.186983 11069 net.cpp:368] inception_4a/pool -> inception_4a/pool
I0816 12:44:07.186990 11069 net.cpp:120] Setting up inception_4a/pool
I0816 12:44:07.186995 11069 net.cpp:127] Top shape: 10 480 14 14 (940800)
I0816 12:44:07.186998 11069 layer_factory.hpp:74] Creating layer inception_4a/pool_proj
I0816 12:44:07.187005 11069 net.cpp:90] Creating Layer inception_4a/pool_proj
I0816 12:44:07.187008 11069 net.cpp:410] inception_4a/pool_proj <- inception_4a/pool
I0816 12:44:07.187012 11069 net.cpp:368] inception_4a/pool_proj -> inception_4a/pool_proj
I0816 12:44:07.187017 11069 net.cpp:120] Setting up inception_4a/pool_proj
I0816 12:44:07.188601 11069 net.cpp:127] Top shape: 10 64 14 14 (125440)
I0816 12:44:07.188611 11069 layer_factory.hpp:74] Creating layer inception_4a/relu_pool_proj
I0816 12:44:07.188616 11069 net.cpp:90] Creating Layer inception_4a/relu_pool_proj
I0816 12:44:07.188619 11069 net.cpp:410] inception_4a/relu_pool_proj <- inception_4a/pool_proj
I0816 12:44:07.188624 11069 net.cpp:357] inception_4a/relu_pool_proj -> inception_4a/pool_proj (in-place)
I0816 12:44:07.188629 11069 net.cpp:120] Setting up inception_4a/relu_pool_proj
I0816 12:44:07.189101 11069 net.cpp:127] Top shape: 10 64 14 14 (125440)
I0816 12:44:07.189110 11069 layer_factory.hpp:74] Creating layer inception_4a/output
I0816 12:44:07.189116 11069 net.cpp:90] Creating Layer inception_4a/output
I0816 12:44:07.189119 11069 net.cpp:410] inception_4a/output <- inception_4a/1x1
I0816 12:44:07.189123 11069 net.cpp:410] inception_4a/output <- inception_4a/3x3
I0816 12:44:07.189127 11069 net.cpp:410] inception_4a/output <- inception_4a/5x5
I0816 12:44:07.189131 11069 net.cpp:410] inception_4a/output <- inception_4a/pool_proj
I0816 12:44:07.189136 11069 net.cpp:368] inception_4a/output -> inception_4a/output
I0816 12:44:07.189141 11069 net.cpp:120] Setting up inception_4a/output
I0816 12:44:07.189146 11069 net.cpp:127] Top shape: 10 512 14 14 (1003520)
I0816 12:44:07.189148 11069 layer_factory.hpp:74] Creating layer inception_4a/output_inception_4a/output_0_split
I0816 12:44:07.189153 11069 net.cpp:90] Creating Layer inception_4a/output_inception_4a/output_0_split
I0816 12:44:07.189157 11069 net.cpp:410] inception_4a/output_inception_4a/output_0_split <- inception_4a/output
I0816 12:44:07.189160 11069 net.cpp:368] inception_4a/output_inception_4a/output_0_split -> inception_4a/output_inception_4a/output_0_split_0
I0816 12:44:07.189167 11069 net.cpp:368] inception_4a/output_inception_4a/output_0_split -> inception_4a/output_inception_4a/output_0_split_1
I0816 12:44:07.189172 11069 net.cpp:368] inception_4a/output_inception_4a/output_0_split -> inception_4a/output_inception_4a/output_0_split_2
I0816 12:44:07.189177 11069 net.cpp:368] inception_4a/output_inception_4a/output_0_split -> inception_4a/output_inception_4a/output_0_split_3
I0816 12:44:07.189180 11069 net.cpp:120] Setting up inception_4a/output_inception_4a/output_0_split
I0816 12:44:07.189187 11069 net.cpp:127] Top shape: 10 512 14 14 (1003520)
I0816 12:44:07.189193 11069 net.cpp:127] Top shape: 10 512 14 14 (1003520)
I0816 12:44:07.189196 11069 net.cpp:127] Top shape: 10 512 14 14 (1003520)
I0816 12:44:07.189199 11069 net.cpp:127] Top shape: 10 512 14 14 (1003520)
I0816 12:44:07.189203 11069 layer_factory.hpp:74] Creating layer inception_4b/1x1
I0816 12:44:07.189208 11069 net.cpp:90] Creating Layer inception_4b/1x1
I0816 12:44:07.189213 11069 net.cpp:410] inception_4b/1x1 <- inception_4a/output_inception_4a/output_0_split_0
I0816 12:44:07.189216 11069 net.cpp:368] inception_4b/1x1 -> inception_4b/1x1
I0816 12:44:07.189221 11069 net.cpp:120] Setting up inception_4b/1x1
I0816 12:44:07.191175 11069 net.cpp:127] Top shape: 10 160 14 14 (313600)
I0816 12:44:07.191186 11069 layer_factory.hpp:74] Creating layer inception_4b/relu_1x1
I0816 12:44:07.191192 11069 net.cpp:90] Creating Layer inception_4b/relu_1x1
I0816 12:44:07.191196 11069 net.cpp:410] inception_4b/relu_1x1 <- inception_4b/1x1
I0816 12:44:07.191200 11069 net.cpp:357] inception_4b/relu_1x1 -> inception_4b/1x1 (in-place)
I0816 12:44:07.191205 11069 net.cpp:120] Setting up inception_4b/relu_1x1
I0816 12:44:07.191679 11069 net.cpp:127] Top shape: 10 160 14 14 (313600)
I0816 12:44:07.191687 11069 layer_factory.hpp:74] Creating layer inception_4b/3x3_reduce
I0816 12:44:07.191694 11069 net.cpp:90] Creating Layer inception_4b/3x3_reduce
I0816 12:44:07.191697 11069 net.cpp:410] inception_4b/3x3_reduce <- inception_4a/output_inception_4a/output_0_split_1
I0816 12:44:07.191704 11069 net.cpp:368] inception_4b/3x3_reduce -> inception_4b/3x3_reduce
I0816 12:44:07.191709 11069 net.cpp:120] Setting up inception_4b/3x3_reduce
I0816 12:44:07.193522 11069 net.cpp:127] Top shape: 10 112 14 14 (219520)
I0816 12:44:07.193533 11069 layer_factory.hpp:74] Creating layer inception_4b/relu_3x3_reduce
I0816 12:44:07.193538 11069 net.cpp:90] Creating Layer inception_4b/relu_3x3_reduce
I0816 12:44:07.193542 11069 net.cpp:410] inception_4b/relu_3x3_reduce <- inception_4b/3x3_reduce
I0816 12:44:07.193547 11069 net.cpp:357] inception_4b/relu_3x3_reduce -> inception_4b/3x3_reduce (in-place)
I0816 12:44:07.193552 11069 net.cpp:120] Setting up inception_4b/relu_3x3_reduce
I0816 12:44:07.194028 11069 net.cpp:127] Top shape: 10 112 14 14 (219520)
I0816 12:44:07.194037 11069 layer_factory.hpp:74] Creating layer inception_4b/3x3
I0816 12:44:07.194043 11069 net.cpp:90] Creating Layer inception_4b/3x3
I0816 12:44:07.194047 11069 net.cpp:410] inception_4b/3x3 <- inception_4b/3x3_reduce
I0816 12:44:07.194053 11069 net.cpp:368] inception_4b/3x3 -> inception_4b/3x3
I0816 12:44:07.194059 11069 net.cpp:120] Setting up inception_4b/3x3
I0816 12:44:07.196882 11069 net.cpp:127] Top shape: 10 224 14 14 (439040)
I0816 12:44:07.196893 11069 layer_factory.hpp:74] Creating layer inception_4b/relu_3x3
I0816 12:44:07.196899 11069 net.cpp:90] Creating Layer inception_4b/relu_3x3
I0816 12:44:07.196903 11069 net.cpp:410] inception_4b/relu_3x3 <- inception_4b/3x3
I0816 12:44:07.196907 11069 net.cpp:357] inception_4b/relu_3x3 -> inception_4b/3x3 (in-place)
I0816 12:44:07.196913 11069 net.cpp:120] Setting up inception_4b/relu_3x3
I0816 12:44:07.197463 11069 net.cpp:127] Top shape: 10 224 14 14 (439040)
I0816 12:44:07.197470 11069 layer_factory.hpp:74] Creating layer inception_4b/5x5_reduce
I0816 12:44:07.197479 11069 net.cpp:90] Creating Layer inception_4b/5x5_reduce
I0816 12:44:07.197484 11069 net.cpp:410] inception_4b/5x5_reduce <- inception_4a/output_inception_4a/output_0_split_2
I0816 12:44:07.197489 11069 net.cpp:368] inception_4b/5x5_reduce -> inception_4b/5x5_reduce
I0816 12:44:07.197494 11069 net.cpp:120] Setting up inception_4b/5x5_reduce
I0816 12:44:07.199020 11069 net.cpp:127] Top shape: 10 24 14 14 (47040)
I0816 12:44:07.199031 11069 layer_factory.hpp:74] Creating layer inception_4b/relu_5x5_reduce
I0816 12:44:07.199044 11069 net.cpp:90] Creating Layer inception_4b/relu_5x5_reduce
I0816 12:44:07.199048 11069 net.cpp:410] inception_4b/relu_5x5_reduce <- inception_4b/5x5_reduce
I0816 12:44:07.199053 11069 net.cpp:357] inception_4b/relu_5x5_reduce -> inception_4b/5x5_reduce (in-place)
I0816 12:44:07.199061 11069 net.cpp:120] Setting up inception_4b/relu_5x5_reduce
I0816 12:44:07.199545 11069 net.cpp:127] Top shape: 10 24 14 14 (47040)
I0816 12:44:07.199554 11069 layer_factory.hpp:74] Creating layer inception_4b/5x5
I0816 12:44:07.199561 11069 net.cpp:90] Creating Layer inception_4b/5x5
I0816 12:44:07.199565 11069 net.cpp:410] inception_4b/5x5 <- inception_4b/5x5_reduce
I0816 12:44:07.199570 11069 net.cpp:368] inception_4b/5x5 -> inception_4b/5x5
I0816 12:44:07.199576 11069 net.cpp:120] Setting up inception_4b/5x5
I0816 12:44:07.201308 11069 net.cpp:127] Top shape: 10 64 14 14 (125440)
I0816 12:44:07.201318 11069 layer_factory.hpp:74] Creating layer inception_4b/relu_5x5
I0816 12:44:07.201324 11069 net.cpp:90] Creating Layer inception_4b/relu_5x5
I0816 12:44:07.201328 11069 net.cpp:410] inception_4b/relu_5x5 <- inception_4b/5x5
I0816 12:44:07.201333 11069 net.cpp:357] inception_4b/relu_5x5 -> inception_4b/5x5 (in-place)
I0816 12:44:07.201338 11069 net.cpp:120] Setting up inception_4b/relu_5x5
I0816 12:44:07.201828 11069 net.cpp:127] Top shape: 10 64 14 14 (125440)
I0816 12:44:07.201838 11069 layer_factory.hpp:74] Creating layer inception_4b/pool
I0816 12:44:07.201841 11069 layer_factory.cpp:60] CUDNN does not support padding or multiple tops. Using Caffe's own pooling layer.
I0816 12:44:07.201846 11069 net.cpp:90] Creating Layer inception_4b/pool
I0816 12:44:07.201850 11069 net.cpp:410] inception_4b/pool <- inception_4a/output_inception_4a/output_0_split_3
I0816 12:44:07.201855 11069 net.cpp:368] inception_4b/pool -> inception_4b/pool
I0816 12:44:07.201860 11069 net.cpp:120] Setting up inception_4b/pool
I0816 12:44:07.201869 11069 net.cpp:127] Top shape: 10 512 14 14 (1003520)
I0816 12:44:07.201872 11069 layer_factory.hpp:74] Creating layer inception_4b/pool_proj
I0816 12:44:07.201877 11069 net.cpp:90] Creating Layer inception_4b/pool_proj
I0816 12:44:07.201881 11069 net.cpp:410] inception_4b/pool_proj <- inception_4b/pool
I0816 12:44:07.201886 11069 net.cpp:368] inception_4b/pool_proj -> inception_4b/pool_proj
I0816 12:44:07.201891 11069 net.cpp:120] Setting up inception_4b/pool_proj
I0816 12:44:07.203609 11069 net.cpp:127] Top shape: 10 64 14 14 (125440)
I0816 12:44:07.203620 11069 layer_factory.hpp:74] Creating layer inception_4b/relu_pool_proj
I0816 12:44:07.203626 11069 net.cpp:90] Creating Layer inception_4b/relu_pool_proj
I0816 12:44:07.203630 11069 net.cpp:410] inception_4b/relu_pool_proj <- inception_4b/pool_proj
I0816 12:44:07.203634 11069 net.cpp:357] inception_4b/relu_pool_proj -> inception_4b/pool_proj (in-place)
I0816 12:44:07.203639 11069 net.cpp:120] Setting up inception_4b/relu_pool_proj
I0816 12:44:07.204128 11069 net.cpp:127] Top shape: 10 64 14 14 (125440)
I0816 12:44:07.204136 11069 layer_factory.hpp:74] Creating layer inception_4b/output
I0816 12:44:07.204141 11069 net.cpp:90] Creating Layer inception_4b/output
I0816 12:44:07.204145 11069 net.cpp:410] inception_4b/output <- inception_4b/1x1
I0816 12:44:07.204149 11069 net.cpp:410] inception_4b/output <- inception_4b/3x3
I0816 12:44:07.204152 11069 net.cpp:410] inception_4b/output <- inception_4b/5x5
I0816 12:44:07.204156 11069 net.cpp:410] inception_4b/output <- inception_4b/pool_proj
I0816 12:44:07.204161 11069 net.cpp:368] inception_4b/output -> inception_4b/output
I0816 12:44:07.204166 11069 net.cpp:120] Setting up inception_4b/output
I0816 12:44:07.204172 11069 net.cpp:127] Top shape: 10 512 14 14 (1003520)
I0816 12:44:07.204175 11069 layer_factory.hpp:74] Creating layer inception_4b/output_inception_4b/output_0_split
I0816 12:44:07.204180 11069 net.cpp:90] Creating Layer inception_4b/output_inception_4b/output_0_split
I0816 12:44:07.204183 11069 net.cpp:410] inception_4b/output_inception_4b/output_0_split <- inception_4b/output
I0816 12:44:07.204188 11069 net.cpp:368] inception_4b/output_inception_4b/output_0_split -> inception_4b/output_inception_4b/output_0_split_0
I0816 12:44:07.204193 11069 net.cpp:368] inception_4b/output_inception_4b/output_0_split -> inception_4b/output_inception_4b/output_0_split_1
I0816 12:44:07.204201 11069 net.cpp:368] inception_4b/output_inception_4b/output_0_split -> inception_4b/output_inception_4b/output_0_split_2
I0816 12:44:07.204206 11069 net.cpp:368] inception_4b/output_inception_4b/output_0_split -> inception_4b/output_inception_4b/output_0_split_3
I0816 12:44:07.204210 11069 net.cpp:120] Setting up inception_4b/output_inception_4b/output_0_split
I0816 12:44:07.204216 11069 net.cpp:127] Top shape: 10 512 14 14 (1003520)
I0816 12:44:07.204219 11069 net.cpp:127] Top shape: 10 512 14 14 (1003520)
I0816 12:44:07.204223 11069 net.cpp:127] Top shape: 10 512 14 14 (1003520)
I0816 12:44:07.204226 11069 net.cpp:127] Top shape: 10 512 14 14 (1003520)
I0816 12:44:07.204229 11069 layer_factory.hpp:74] Creating layer inception_4c/1x1
I0816 12:44:07.204236 11069 net.cpp:90] Creating Layer inception_4c/1x1
I0816 12:44:07.204239 11069 net.cpp:410] inception_4c/1x1 <- inception_4b/output_inception_4b/output_0_split_0
I0816 12:44:07.204244 11069 net.cpp:368] inception_4c/1x1 -> inception_4c/1x1
I0816 12:44:07.204249 11069 net.cpp:120] Setting up inception_4c/1x1
I0816 12:44:07.206089 11069 net.cpp:127] Top shape: 10 128 14 14 (250880)
I0816 12:44:07.206099 11069 layer_factory.hpp:74] Creating layer inception_4c/relu_1x1
I0816 12:44:07.206105 11069 net.cpp:90] Creating Layer inception_4c/relu_1x1
I0816 12:44:07.206110 11069 net.cpp:410] inception_4c/relu_1x1 <- inception_4c/1x1
I0816 12:44:07.206114 11069 net.cpp:357] inception_4c/relu_1x1 -> inception_4c/1x1 (in-place)
I0816 12:44:07.206118 11069 net.cpp:120] Setting up inception_4c/relu_1x1
I0816 12:44:07.206679 11069 net.cpp:127] Top shape: 10 128 14 14 (250880)
I0816 12:44:07.206687 11069 layer_factory.hpp:74] Creating layer inception_4c/3x3_reduce
I0816 12:44:07.206696 11069 net.cpp:90] Creating Layer inception_4c/3x3_reduce
I0816 12:44:07.206698 11069 net.cpp:410] inception_4c/3x3_reduce <- inception_4b/output_inception_4b/output_0_split_1
I0816 12:44:07.206704 11069 net.cpp:368] inception_4c/3x3_reduce -> inception_4c/3x3_reduce
I0816 12:44:07.206711 11069 net.cpp:120] Setting up inception_4c/3x3_reduce
I0816 12:44:07.208551 11069 net.cpp:127] Top shape: 10 128 14 14 (250880)
I0816 12:44:07.208562 11069 layer_factory.hpp:74] Creating layer inception_4c/relu_3x3_reduce
I0816 12:44:07.208567 11069 net.cpp:90] Creating Layer inception_4c/relu_3x3_reduce
I0816 12:44:07.208572 11069 net.cpp:410] inception_4c/relu_3x3_reduce <- inception_4c/3x3_reduce
I0816 12:44:07.208576 11069 net.cpp:357] inception_4c/relu_3x3_reduce -> inception_4c/3x3_reduce (in-place)
I0816 12:44:07.208581 11069 net.cpp:120] Setting up inception_4c/relu_3x3_reduce
I0816 12:44:07.209072 11069 net.cpp:127] Top shape: 10 128 14 14 (250880)
I0816 12:44:07.209080 11069 layer_factory.hpp:74] Creating layer inception_4c/3x3
I0816 12:44:07.209087 11069 net.cpp:90] Creating Layer inception_4c/3x3
I0816 12:44:07.209091 11069 net.cpp:410] inception_4c/3x3 <- inception_4c/3x3_reduce
I0816 12:44:07.209097 11069 net.cpp:368] inception_4c/3x3 -> inception_4c/3x3
I0816 12:44:07.209102 11069 net.cpp:120] Setting up inception_4c/3x3
I0816 12:44:07.212329 11069 net.cpp:127] Top shape: 10 256 14 14 (501760)
I0816 12:44:07.212342 11069 layer_factory.hpp:74] Creating layer inception_4c/relu_3x3
I0816 12:44:07.212347 11069 net.cpp:90] Creating Layer inception_4c/relu_3x3
I0816 12:44:07.212352 11069 net.cpp:410] inception_4c/relu_3x3 <- inception_4c/3x3
I0816 12:44:07.212357 11069 net.cpp:357] inception_4c/relu_3x3 -> inception_4c/3x3 (in-place)
I0816 12:44:07.212362 11069 net.cpp:120] Setting up inception_4c/relu_3x3
I0816 12:44:07.212889 11069 net.cpp:127] Top shape: 10 256 14 14 (501760)
I0816 12:44:07.212898 11069 layer_factory.hpp:74] Creating layer inception_4c/5x5_reduce
I0816 12:44:07.212903 11069 net.cpp:90] Creating Layer inception_4c/5x5_reduce
I0816 12:44:07.212908 11069 net.cpp:410] inception_4c/5x5_reduce <- inception_4b/output_inception_4b/output_0_split_2
I0816 12:44:07.212913 11069 net.cpp:368] inception_4c/5x5_reduce -> inception_4c/5x5_reduce
I0816 12:44:07.212929 11069 net.cpp:120] Setting up inception_4c/5x5_reduce
I0816 12:44:07.214735 11069 net.cpp:127] Top shape: 10 24 14 14 (47040)
I0816 12:44:07.214745 11069 layer_factory.hpp:74] Creating layer inception_4c/relu_5x5_reduce
I0816 12:44:07.214751 11069 net.cpp:90] Creating Layer inception_4c/relu_5x5_reduce
I0816 12:44:07.214754 11069 net.cpp:410] inception_4c/relu_5x5_reduce <- inception_4c/5x5_reduce
I0816 12:44:07.214759 11069 net.cpp:357] inception_4c/relu_5x5_reduce -> inception_4c/5x5_reduce (in-place)
I0816 12:44:07.214764 11069 net.cpp:120] Setting up inception_4c/relu_5x5_reduce
I0816 12:44:07.215253 11069 net.cpp:127] Top shape: 10 24 14 14 (47040)
I0816 12:44:07.215261 11069 layer_factory.hpp:74] Creating layer inception_4c/5x5
I0816 12:44:07.215268 11069 net.cpp:90] Creating Layer inception_4c/5x5
I0816 12:44:07.215272 11069 net.cpp:410] inception_4c/5x5 <- inception_4c/5x5_reduce
I0816 12:44:07.215278 11069 net.cpp:368] inception_4c/5x5 -> inception_4c/5x5
I0816 12:44:07.215284 11069 net.cpp:120] Setting up inception_4c/5x5
I0816 12:44:07.217087 11069 net.cpp:127] Top shape: 10 64 14 14 (125440)
I0816 12:44:07.217097 11069 layer_factory.hpp:74] Creating layer inception_4c/relu_5x5
I0816 12:44:07.217103 11069 net.cpp:90] Creating Layer inception_4c/relu_5x5
I0816 12:44:07.217106 11069 net.cpp:410] inception_4c/relu_5x5 <- inception_4c/5x5
I0816 12:44:07.217110 11069 net.cpp:357] inception_4c/relu_5x5 -> inception_4c/5x5 (in-place)
I0816 12:44:07.217115 11069 net.cpp:120] Setting up inception_4c/relu_5x5
I0816 12:44:07.217607 11069 net.cpp:127] Top shape: 10 64 14 14 (125440)
I0816 12:44:07.217614 11069 layer_factory.hpp:74] Creating layer inception_4c/pool
I0816 12:44:07.217619 11069 layer_factory.cpp:60] CUDNN does not support padding or multiple tops. Using Caffe's own pooling layer.
I0816 12:44:07.217623 11069 net.cpp:90] Creating Layer inception_4c/pool
I0816 12:44:07.217627 11069 net.cpp:410] inception_4c/pool <- inception_4b/output_inception_4b/output_0_split_3
I0816 12:44:07.217633 11069 net.cpp:368] inception_4c/pool -> inception_4c/pool
I0816 12:44:07.217638 11069 net.cpp:120] Setting up inception_4c/pool
I0816 12:44:07.217644 11069 net.cpp:127] Top shape: 10 512 14 14 (1003520)
I0816 12:44:07.217648 11069 layer_factory.hpp:74] Creating layer inception_4c/pool_proj
I0816 12:44:07.217654 11069 net.cpp:90] Creating Layer inception_4c/pool_proj
I0816 12:44:07.217658 11069 net.cpp:410] inception_4c/pool_proj <- inception_4c/pool
I0816 12:44:07.217663 11069 net.cpp:368] inception_4c/pool_proj -> inception_4c/pool_proj
I0816 12:44:07.217670 11069 net.cpp:120] Setting up inception_4c/pool_proj
I0816 12:44:07.219419 11069 net.cpp:127] Top shape: 10 64 14 14 (125440)
I0816 12:44:07.219436 11069 layer_factory.hpp:74] Creating layer inception_4c/relu_pool_proj
I0816 12:44:07.219444 11069 net.cpp:90] Creating Layer inception_4c/relu_pool_proj
I0816 12:44:07.219447 11069 net.cpp:410] inception_4c/relu_pool_proj <- inception_4c/pool_proj
I0816 12:44:07.219452 11069 net.cpp:357] inception_4c/relu_pool_proj -> inception_4c/pool_proj (in-place)
I0816 12:44:07.219456 11069 net.cpp:120] Setting up inception_4c/relu_pool_proj
I0816 12:44:07.219954 11069 net.cpp:127] Top shape: 10 64 14 14 (125440)
I0816 12:44:07.219961 11069 layer_factory.hpp:74] Creating layer inception_4c/output
I0816 12:44:07.219966 11069 net.cpp:90] Creating Layer inception_4c/output
I0816 12:44:07.219970 11069 net.cpp:410] inception_4c/output <- inception_4c/1x1
I0816 12:44:07.219974 11069 net.cpp:410] inception_4c/output <- inception_4c/3x3
I0816 12:44:07.219977 11069 net.cpp:410] inception_4c/output <- inception_4c/5x5
I0816 12:44:07.219981 11069 net.cpp:410] inception_4c/output <- inception_4c/pool_proj
I0816 12:44:07.219987 11069 net.cpp:368] inception_4c/output -> inception_4c/output
I0816 12:44:07.219992 11069 net.cpp:120] Setting up inception_4c/output
I0816 12:44:07.219998 11069 net.cpp:127] Top shape: 10 512 14 14 (1003520)
I0816 12:44:07.220001 11069 layer_factory.hpp:74] Creating layer inception_4c/output_inception_4c/output_0_split
I0816 12:44:07.220012 11069 net.cpp:90] Creating Layer inception_4c/output_inception_4c/output_0_split
I0816 12:44:07.220016 11069 net.cpp:410] inception_4c/output_inception_4c/output_0_split <- inception_4c/output
I0816 12:44:07.220021 11069 net.cpp:368] inception_4c/output_inception_4c/output_0_split -> inception_4c/output_inception_4c/output_0_split_0
I0816 12:44:07.220026 11069 net.cpp:368] inception_4c/output_inception_4c/output_0_split -> inception_4c/output_inception_4c/output_0_split_1
I0816 12:44:07.220031 11069 net.cpp:368] inception_4c/output_inception_4c/output_0_split -> inception_4c/output_inception_4c/output_0_split_2
I0816 12:44:07.220036 11069 net.cpp:368] inception_4c/output_inception_4c/output_0_split -> inception_4c/output_inception_4c/output_0_split_3
I0816 12:44:07.220041 11069 net.cpp:120] Setting up inception_4c/output_inception_4c/output_0_split
I0816 12:44:07.220046 11069 net.cpp:127] Top shape: 10 512 14 14 (1003520)
I0816 12:44:07.220048 11069 net.cpp:127] Top shape: 10 512 14 14 (1003520)
I0816 12:44:07.220052 11069 net.cpp:127] Top shape: 10 512 14 14 (1003520)
I0816 12:44:07.220055 11069 net.cpp:127] Top shape: 10 512 14 14 (1003520)
I0816 12:44:07.220058 11069 layer_factory.hpp:74] Creating layer inception_4d/1x1
I0816 12:44:07.220065 11069 net.cpp:90] Creating Layer inception_4d/1x1
I0816 12:44:07.220069 11069 net.cpp:410] inception_4d/1x1 <- inception_4c/output_inception_4c/output_0_split_0
I0816 12:44:07.220074 11069 net.cpp:368] inception_4d/1x1 -> inception_4d/1x1
I0816 12:44:07.220079 11069 net.cpp:120] Setting up inception_4d/1x1
I0816 12:44:07.222000 11069 net.cpp:127] Top shape: 10 112 14 14 (219520)
I0816 12:44:07.222012 11069 layer_factory.hpp:74] Creating layer inception_4d/relu_1x1
I0816 12:44:07.222018 11069 net.cpp:90] Creating Layer inception_4d/relu_1x1
I0816 12:44:07.222021 11069 net.cpp:410] inception_4d/relu_1x1 <- inception_4d/1x1
I0816 12:44:07.222025 11069 net.cpp:357] inception_4d/relu_1x1 -> inception_4d/1x1 (in-place)
I0816 12:44:07.222030 11069 net.cpp:120] Setting up inception_4d/relu_1x1
I0816 12:44:07.222524 11069 net.cpp:127] Top shape: 10 112 14 14 (219520)
I0816 12:44:07.222532 11069 layer_factory.hpp:74] Creating layer inception_4d/3x3_reduce
I0816 12:44:07.222540 11069 net.cpp:90] Creating Layer inception_4d/3x3_reduce
I0816 12:44:07.222543 11069 net.cpp:410] inception_4d/3x3_reduce <- inception_4c/output_inception_4c/output_0_split_1
I0816 12:44:07.222548 11069 net.cpp:368] inception_4d/3x3_reduce -> inception_4d/3x3_reduce
I0816 12:44:07.222554 11069 net.cpp:120] Setting up inception_4d/3x3_reduce
I0816 12:44:07.224529 11069 net.cpp:127] Top shape: 10 144 14 14 (282240)
I0816 12:44:07.224539 11069 layer_factory.hpp:74] Creating layer inception_4d/relu_3x3_reduce
I0816 12:44:07.224545 11069 net.cpp:90] Creating Layer inception_4d/relu_3x3_reduce
I0816 12:44:07.224550 11069 net.cpp:410] inception_4d/relu_3x3_reduce <- inception_4d/3x3_reduce
I0816 12:44:07.224555 11069 net.cpp:357] inception_4d/relu_3x3_reduce -> inception_4d/3x3_reduce (in-place)
I0816 12:44:07.224560 11069 net.cpp:120] Setting up inception_4d/relu_3x3_reduce
I0816 12:44:07.225055 11069 net.cpp:127] Top shape: 10 144 14 14 (282240)
I0816 12:44:07.225064 11069 layer_factory.hpp:74] Creating layer inception_4d/3x3
I0816 12:44:07.225069 11069 net.cpp:90] Creating Layer inception_4d/3x3
I0816 12:44:07.225074 11069 net.cpp:410] inception_4d/3x3 <- inception_4d/3x3_reduce
I0816 12:44:07.225080 11069 net.cpp:368] inception_4d/3x3 -> inception_4d/3x3
I0816 12:44:07.225085 11069 net.cpp:120] Setting up inception_4d/3x3
I0816 12:44:07.228642 11069 net.cpp:127] Top shape: 10 288 14 14 (564480)
I0816 12:44:07.228654 11069 layer_factory.hpp:74] Creating layer inception_4d/relu_3x3
I0816 12:44:07.228660 11069 net.cpp:90] Creating Layer inception_4d/relu_3x3
I0816 12:44:07.228664 11069 net.cpp:410] inception_4d/relu_3x3 <- inception_4d/3x3
I0816 12:44:07.228669 11069 net.cpp:357] inception_4d/relu_3x3 -> inception_4d/3x3 (in-place)
I0816 12:44:07.228674 11069 net.cpp:120] Setting up inception_4d/relu_3x3
I0816 12:44:07.229182 11069 net.cpp:127] Top shape: 10 288 14 14 (564480)
I0816 12:44:07.229190 11069 layer_factory.hpp:74] Creating layer inception_4d/5x5_reduce
I0816 12:44:07.229197 11069 net.cpp:90] Creating Layer inception_4d/5x5_reduce
I0816 12:44:07.229202 11069 net.cpp:410] inception_4d/5x5_reduce <- inception_4c/output_inception_4c/output_0_split_2
I0816 12:44:07.229207 11069 net.cpp:368] inception_4d/5x5_reduce -> inception_4d/5x5_reduce
I0816 12:44:07.229213 11069 net.cpp:120] Setting up inception_4d/5x5_reduce
I0816 12:44:07.230885 11069 net.cpp:127] Top shape: 10 32 14 14 (62720)
I0816 12:44:07.230895 11069 layer_factory.hpp:74] Creating layer inception_4d/relu_5x5_reduce
I0816 12:44:07.230901 11069 net.cpp:90] Creating Layer inception_4d/relu_5x5_reduce
I0816 12:44:07.230904 11069 net.cpp:410] inception_4d/relu_5x5_reduce <- inception_4d/5x5_reduce
I0816 12:44:07.230909 11069 net.cpp:357] inception_4d/relu_5x5_reduce -> inception_4d/5x5_reduce (in-place)
I0816 12:44:07.230913 11069 net.cpp:120] Setting up inception_4d/relu_5x5_reduce
I0816 12:44:07.231415 11069 net.cpp:127] Top shape: 10 32 14 14 (62720)
I0816 12:44:07.231423 11069 layer_factory.hpp:74] Creating layer inception_4d/5x5
I0816 12:44:07.231431 11069 net.cpp:90] Creating Layer inception_4d/5x5
I0816 12:44:07.231434 11069 net.cpp:410] inception_4d/5x5 <- inception_4d/5x5_reduce
I0816 12:44:07.231439 11069 net.cpp:368] inception_4d/5x5 -> inception_4d/5x5
I0816 12:44:07.231444 11069 net.cpp:120] Setting up inception_4d/5x5
I0816 12:44:07.233316 11069 net.cpp:127] Top shape: 10 64 14 14 (125440)
I0816 12:44:07.233326 11069 layer_factory.hpp:74] Creating layer inception_4d/relu_5x5
I0816 12:44:07.233332 11069 net.cpp:90] Creating Layer inception_4d/relu_5x5
I0816 12:44:07.233336 11069 net.cpp:410] inception_4d/relu_5x5 <- inception_4d/5x5
I0816 12:44:07.233341 11069 net.cpp:357] inception_4d/relu_5x5 -> inception_4d/5x5 (in-place)
I0816 12:44:07.233345 11069 net.cpp:120] Setting up inception_4d/relu_5x5
I0816 12:44:07.233858 11069 net.cpp:127] Top shape: 10 64 14 14 (125440)
I0816 12:44:07.233867 11069 layer_factory.hpp:74] Creating layer inception_4d/pool
I0816 12:44:07.233871 11069 layer_factory.cpp:60] CUDNN does not support padding or multiple tops. Using Caffe's own pooling layer.
I0816 12:44:07.233876 11069 net.cpp:90] Creating Layer inception_4d/pool
I0816 12:44:07.233880 11069 net.cpp:410] inception_4d/pool <- inception_4c/output_inception_4c/output_0_split_3
I0816 12:44:07.233886 11069 net.cpp:368] inception_4d/pool -> inception_4d/pool
I0816 12:44:07.233891 11069 net.cpp:120] Setting up inception_4d/pool
I0816 12:44:07.233897 11069 net.cpp:127] Top shape: 10 512 14 14 (1003520)
I0816 12:44:07.233901 11069 layer_factory.hpp:74] Creating layer inception_4d/pool_proj
I0816 12:44:07.233907 11069 net.cpp:90] Creating Layer inception_4d/pool_proj
I0816 12:44:07.233911 11069 net.cpp:410] inception_4d/pool_proj <- inception_4d/pool
I0816 12:44:07.233916 11069 net.cpp:368] inception_4d/pool_proj -> inception_4d/pool_proj
I0816 12:44:07.233921 11069 net.cpp:120] Setting up inception_4d/pool_proj
I0816 12:44:07.235632 11069 net.cpp:127] Top shape: 10 64 14 14 (125440)
I0816 12:44:07.235643 11069 layer_factory.hpp:74] Creating layer inception_4d/relu_pool_proj
I0816 12:44:07.235648 11069 net.cpp:90] Creating Layer inception_4d/relu_pool_proj
I0816 12:44:07.235652 11069 net.cpp:410] inception_4d/relu_pool_proj <- inception_4d/pool_proj
I0816 12:44:07.235657 11069 net.cpp:357] inception_4d/relu_pool_proj -> inception_4d/pool_proj (in-place)
I0816 12:44:07.235662 11069 net.cpp:120] Setting up inception_4d/relu_pool_proj
I0816 12:44:07.236239 11069 net.cpp:127] Top shape: 10 64 14 14 (125440)
I0816 12:44:07.236248 11069 layer_factory.hpp:74] Creating layer inception_4d/output
I0816 12:44:07.236253 11069 net.cpp:90] Creating Layer inception_4d/output
I0816 12:44:07.236258 11069 net.cpp:410] inception_4d/output <- inception_4d/1x1
I0816 12:44:07.236261 11069 net.cpp:410] inception_4d/output <- inception_4d/3x3
I0816 12:44:07.236265 11069 net.cpp:410] inception_4d/output <- inception_4d/5x5
I0816 12:44:07.236271 11069 net.cpp:410] inception_4d/output <- inception_4d/pool_proj
I0816 12:44:07.236276 11069 net.cpp:368] inception_4d/output -> inception_4d/output
I0816 12:44:07.236281 11069 net.cpp:120] Setting up inception_4d/output
I0816 12:44:07.236287 11069 net.cpp:127] Top shape: 10 528 14 14 (1034880)
I0816 12:44:07.236291 11069 layer_factory.hpp:74] Creating layer inception_4d/output_inception_4d/output_0_split
I0816 12:44:07.236295 11069 net.cpp:90] Creating Layer inception_4d/output_inception_4d/output_0_split
I0816 12:44:07.236299 11069 net.cpp:410] inception_4d/output_inception_4d/output_0_split <- inception_4d/output
I0816 12:44:07.236304 11069 net.cpp:368] inception_4d/output_inception_4d/output_0_split -> inception_4d/output_inception_4d/output_0_split_0
I0816 12:44:07.236307 11069 net.cpp:368] inception_4d/output_inception_4d/output_0_split -> inception_4d/output_inception_4d/output_0_split_1
I0816 12:44:07.236312 11069 net.cpp:368] inception_4d/output_inception_4d/output_0_split -> inception_4d/output_inception_4d/output_0_split_2
I0816 12:44:07.236317 11069 net.cpp:368] inception_4d/output_inception_4d/output_0_split -> inception_4d/output_inception_4d/output_0_split_3
I0816 12:44:07.236321 11069 net.cpp:120] Setting up inception_4d/output_inception_4d/output_0_split
I0816 12:44:07.236326 11069 net.cpp:127] Top shape: 10 528 14 14 (1034880)
I0816 12:44:07.236330 11069 net.cpp:127] Top shape: 10 528 14 14 (1034880)
I0816 12:44:07.236333 11069 net.cpp:127] Top shape: 10 528 14 14 (1034880)
I0816 12:44:07.236336 11069 net.cpp:127] Top shape: 10 528 14 14 (1034880)
I0816 12:44:07.236340 11069 layer_factory.hpp:74] Creating layer inception_4e/1x1
I0816 12:44:07.236346 11069 net.cpp:90] Creating Layer inception_4e/1x1
I0816 12:44:07.236349 11069 net.cpp:410] inception_4e/1x1 <- inception_4d/output_inception_4d/output_0_split_0
I0816 12:44:07.236356 11069 net.cpp:368] inception_4e/1x1 -> inception_4e/1x1
I0816 12:44:07.236361 11069 net.cpp:120] Setting up inception_4e/1x1
I0816 12:44:07.238714 11069 net.cpp:127] Top shape: 10 256 14 14 (501760)
I0816 12:44:07.238735 11069 layer_factory.hpp:74] Creating layer inception_4e/relu_1x1
I0816 12:44:07.238742 11069 net.cpp:90] Creating Layer inception_4e/relu_1x1
I0816 12:44:07.238746 11069 net.cpp:410] inception_4e/relu_1x1 <- inception_4e/1x1
I0816 12:44:07.238750 11069 net.cpp:357] inception_4e/relu_1x1 -> inception_4e/1x1 (in-place)
I0816 12:44:07.238755 11069 net.cpp:120] Setting up inception_4e/relu_1x1
I0816 12:44:07.239315 11069 net.cpp:127] Top shape: 10 256 14 14 (501760)
I0816 12:44:07.239323 11069 layer_factory.hpp:74] Creating layer inception_4e/3x3_reduce
I0816 12:44:07.239331 11069 net.cpp:90] Creating Layer inception_4e/3x3_reduce
I0816 12:44:07.239334 11069 net.cpp:410] inception_4e/3x3_reduce <- inception_4d/output_inception_4d/output_0_split_1
I0816 12:44:07.239339 11069 net.cpp:368] inception_4e/3x3_reduce -> inception_4e/3x3_reduce
I0816 12:44:07.239346 11069 net.cpp:120] Setting up inception_4e/3x3_reduce
I0816 12:44:07.241411 11069 net.cpp:127] Top shape: 10 160 14 14 (313600)
I0816 12:44:07.241422 11069 layer_factory.hpp:74] Creating layer inception_4e/relu_3x3_reduce
I0816 12:44:07.241427 11069 net.cpp:90] Creating Layer inception_4e/relu_3x3_reduce
I0816 12:44:07.241431 11069 net.cpp:410] inception_4e/relu_3x3_reduce <- inception_4e/3x3_reduce
I0816 12:44:07.241436 11069 net.cpp:357] inception_4e/relu_3x3_reduce -> inception_4e/3x3_reduce (in-place)
I0816 12:44:07.241441 11069 net.cpp:120] Setting up inception_4e/relu_3x3_reduce
I0816 12:44:07.241953 11069 net.cpp:127] Top shape: 10 160 14 14 (313600)
I0816 12:44:07.241961 11069 layer_factory.hpp:74] Creating layer inception_4e/3x3
I0816 12:44:07.241968 11069 net.cpp:90] Creating Layer inception_4e/3x3
I0816 12:44:07.241972 11069 net.cpp:410] inception_4e/3x3 <- inception_4e/3x3_reduce
I0816 12:44:07.241977 11069 net.cpp:368] inception_4e/3x3 -> inception_4e/3x3
I0816 12:44:07.241983 11069 net.cpp:120] Setting up inception_4e/3x3
I0816 12:44:07.246064 11069 net.cpp:127] Top shape: 10 320 14 14 (627200)
I0816 12:44:07.246075 11069 layer_factory.hpp:74] Creating layer inception_4e/relu_3x3
I0816 12:44:07.246081 11069 net.cpp:90] Creating Layer inception_4e/relu_3x3
I0816 12:44:07.246085 11069 net.cpp:410] inception_4e/relu_3x3 <- inception_4e/3x3
I0816 12:44:07.246090 11069 net.cpp:357] inception_4e/relu_3x3 -> inception_4e/3x3 (in-place)
I0816 12:44:07.246095 11069 net.cpp:120] Setting up inception_4e/relu_3x3
I0816 12:44:07.246609 11069 net.cpp:127] Top shape: 10 320 14 14 (627200)
I0816 12:44:07.246618 11069 layer_factory.hpp:74] Creating layer inception_4e/5x5_reduce
I0816 12:44:07.246624 11069 net.cpp:90] Creating Layer inception_4e/5x5_reduce
I0816 12:44:07.246628 11069 net.cpp:410] inception_4e/5x5_reduce <- inception_4d/output_inception_4d/output_0_split_2
I0816 12:44:07.246634 11069 net.cpp:368] inception_4e/5x5_reduce -> inception_4e/5x5_reduce
I0816 12:44:07.246640 11069 net.cpp:120] Setting up inception_4e/5x5_reduce
I0816 12:44:07.248281 11069 net.cpp:127] Top shape: 10 32 14 14 (62720)
I0816 12:44:07.248291 11069 layer_factory.hpp:74] Creating layer inception_4e/relu_5x5_reduce
I0816 12:44:07.248297 11069 net.cpp:90] Creating Layer inception_4e/relu_5x5_reduce
I0816 12:44:07.248301 11069 net.cpp:410] inception_4e/relu_5x5_reduce <- inception_4e/5x5_reduce
I0816 12:44:07.248306 11069 net.cpp:357] inception_4e/relu_5x5_reduce -> inception_4e/5x5_reduce (in-place)
I0816 12:44:07.248309 11069 net.cpp:120] Setting up inception_4e/relu_5x5_reduce
I0816 12:44:07.248913 11069 net.cpp:127] Top shape: 10 32 14 14 (62720)
I0816 12:44:07.248920 11069 layer_factory.hpp:74] Creating layer inception_4e/5x5
I0816 12:44:07.248927 11069 net.cpp:90] Creating Layer inception_4e/5x5
I0816 12:44:07.248931 11069 net.cpp:410] inception_4e/5x5 <- inception_4e/5x5_reduce
I0816 12:44:07.248936 11069 net.cpp:368] inception_4e/5x5 -> inception_4e/5x5
I0816 12:44:07.248942 11069 net.cpp:120] Setting up inception_4e/5x5
I0816 12:44:07.251075 11069 net.cpp:127] Top shape: 10 128 14 14 (250880)
I0816 12:44:07.251086 11069 layer_factory.hpp:74] Creating layer inception_4e/relu_5x5
I0816 12:44:07.251091 11069 net.cpp:90] Creating Layer inception_4e/relu_5x5
I0816 12:44:07.251096 11069 net.cpp:410] inception_4e/relu_5x5 <- inception_4e/5x5
I0816 12:44:07.251101 11069 net.cpp:357] inception_4e/relu_5x5 -> inception_4e/5x5 (in-place)
I0816 12:44:07.251106 11069 net.cpp:120] Setting up inception_4e/relu_5x5
I0816 12:44:07.251634 11069 net.cpp:127] Top shape: 10 128 14 14 (250880)
I0816 12:44:07.251642 11069 layer_factory.hpp:74] Creating layer inception_4e/pool
I0816 12:44:07.251647 11069 layer_factory.cpp:60] CUDNN does not support padding or multiple tops. Using Caffe's own pooling layer.
I0816 12:44:07.251652 11069 net.cpp:90] Creating Layer inception_4e/pool
I0816 12:44:07.251655 11069 net.cpp:410] inception_4e/pool <- inception_4d/output_inception_4d/output_0_split_3
I0816 12:44:07.251660 11069 net.cpp:368] inception_4e/pool -> inception_4e/pool
I0816 12:44:07.251665 11069 net.cpp:120] Setting up inception_4e/pool
I0816 12:44:07.251672 11069 net.cpp:127] Top shape: 10 528 14 14 (1034880)
I0816 12:44:07.251675 11069 layer_factory.hpp:74] Creating layer inception_4e/pool_proj
I0816 12:44:07.251682 11069 net.cpp:90] Creating Layer inception_4e/pool_proj
I0816 12:44:07.251685 11069 net.cpp:410] inception_4e/pool_proj <- inception_4e/pool
I0816 12:44:07.251690 11069 net.cpp:368] inception_4e/pool_proj -> inception_4e/pool_proj
I0816 12:44:07.251695 11069 net.cpp:120] Setting up inception_4e/pool_proj
I0816 12:44:07.253718 11069 net.cpp:127] Top shape: 10 128 14 14 (250880)
I0816 12:44:07.253729 11069 layer_factory.hpp:74] Creating layer inception_4e/relu_pool_proj
I0816 12:44:07.253734 11069 net.cpp:90] Creating Layer inception_4e/relu_pool_proj
I0816 12:44:07.253738 11069 net.cpp:410] inception_4e/relu_pool_proj <- inception_4e/pool_proj
I0816 12:44:07.253742 11069 net.cpp:357] inception_4e/relu_pool_proj -> inception_4e/pool_proj (in-place)
I0816 12:44:07.253747 11069 net.cpp:120] Setting up inception_4e/relu_pool_proj
I0816 12:44:07.254271 11069 net.cpp:127] Top shape: 10 128 14 14 (250880)
I0816 12:44:07.254279 11069 layer_factory.hpp:74] Creating layer inception_4e/output
I0816 12:44:07.254287 11069 net.cpp:90] Creating Layer inception_4e/output
I0816 12:44:07.254290 11069 net.cpp:410] inception_4e/output <- inception_4e/1x1
I0816 12:44:07.254294 11069 net.cpp:410] inception_4e/output <- inception_4e/3x3
I0816 12:44:07.254297 11069 net.cpp:410] inception_4e/output <- inception_4e/5x5
I0816 12:44:07.254302 11069 net.cpp:410] inception_4e/output <- inception_4e/pool_proj
I0816 12:44:07.254305 11069 net.cpp:368] inception_4e/output -> inception_4e/output
I0816 12:44:07.254310 11069 net.cpp:120] Setting up inception_4e/output
I0816 12:44:07.254317 11069 net.cpp:127] Top shape: 10 832 14 14 (1630720)
I0816 12:44:07.254319 11069 layer_factory.hpp:74] Creating layer pool4/3x3_s2
I0816 12:44:07.254324 11069 net.cpp:90] Creating Layer pool4/3x3_s2
I0816 12:44:07.254328 11069 net.cpp:410] pool4/3x3_s2 <- inception_4e/output
I0816 12:44:07.254333 11069 net.cpp:368] pool4/3x3_s2 -> pool4/3x3_s2
I0816 12:44:07.254338 11069 net.cpp:120] Setting up pool4/3x3_s2
I0816 12:44:07.254861 11069 net.cpp:127] Top shape: 10 832 7 7 (407680)
I0816 12:44:07.254869 11069 layer_factory.hpp:74] Creating layer pool4/3x3_s2_pool4/3x3_s2_0_split
I0816 12:44:07.254875 11069 net.cpp:90] Creating Layer pool4/3x3_s2_pool4/3x3_s2_0_split
I0816 12:44:07.254878 11069 net.cpp:410] pool4/3x3_s2_pool4/3x3_s2_0_split <- pool4/3x3_s2
I0816 12:44:07.254884 11069 net.cpp:368] pool4/3x3_s2_pool4/3x3_s2_0_split -> pool4/3x3_s2_pool4/3x3_s2_0_split_0
I0816 12:44:07.254889 11069 net.cpp:368] pool4/3x3_s2_pool4/3x3_s2_0_split -> pool4/3x3_s2_pool4/3x3_s2_0_split_1
I0816 12:44:07.254894 11069 net.cpp:368] pool4/3x3_s2_pool4/3x3_s2_0_split -> pool4/3x3_s2_pool4/3x3_s2_0_split_2
I0816 12:44:07.254899 11069 net.cpp:368] pool4/3x3_s2_pool4/3x3_s2_0_split -> pool4/3x3_s2_pool4/3x3_s2_0_split_3
I0816 12:44:07.254904 11069 net.cpp:120] Setting up pool4/3x3_s2_pool4/3x3_s2_0_split
I0816 12:44:07.254909 11069 net.cpp:127] Top shape: 10 832 7 7 (407680)
I0816 12:44:07.254912 11069 net.cpp:127] Top shape: 10 832 7 7 (407680)
I0816 12:44:07.254916 11069 net.cpp:127] Top shape: 10 832 7 7 (407680)
I0816 12:44:07.254920 11069 net.cpp:127] Top shape: 10 832 7 7 (407680)
I0816 12:44:07.254922 11069 layer_factory.hpp:74] Creating layer inception_5a/1x1
I0816 12:44:07.254930 11069 net.cpp:90] Creating Layer inception_5a/1x1
I0816 12:44:07.254932 11069 net.cpp:410] inception_5a/1x1 <- pool4/3x3_s2_pool4/3x3_s2_0_split_0
I0816 12:44:07.254937 11069 net.cpp:368] inception_5a/1x1 -> inception_5a/1x1
I0816 12:44:07.254942 11069 net.cpp:120] Setting up inception_5a/1x1
I0816 12:44:07.257802 11069 net.cpp:127] Top shape: 10 256 7 7 (125440)
I0816 12:44:07.257813 11069 layer_factory.hpp:74] Creating layer inception_5a/relu_1x1
I0816 12:44:07.257819 11069 net.cpp:90] Creating Layer inception_5a/relu_1x1
I0816 12:44:07.257823 11069 net.cpp:410] inception_5a/relu_1x1 <- inception_5a/1x1
I0816 12:44:07.257828 11069 net.cpp:357] inception_5a/relu_1x1 -> inception_5a/1x1 (in-place)
I0816 12:44:07.257833 11069 net.cpp:120] Setting up inception_5a/relu_1x1
I0816 12:44:07.258363 11069 net.cpp:127] Top shape: 10 256 7 7 (125440)
I0816 12:44:07.258370 11069 layer_factory.hpp:74] Creating layer inception_5a/3x3_reduce
I0816 12:44:07.258378 11069 net.cpp:90] Creating Layer inception_5a/3x3_reduce
I0816 12:44:07.258381 11069 net.cpp:410] inception_5a/3x3_reduce <- pool4/3x3_s2_pool4/3x3_s2_0_split_1
I0816 12:44:07.258388 11069 net.cpp:368] inception_5a/3x3_reduce -> inception_5a/3x3_reduce
I0816 12:44:07.258394 11069 net.cpp:120] Setting up inception_5a/3x3_reduce
I0816 12:44:07.260720 11069 net.cpp:127] Top shape: 10 160 7 7 (78400)
I0816 12:44:07.260730 11069 layer_factory.hpp:74] Creating layer inception_5a/relu_3x3_reduce
I0816 12:44:07.260735 11069 net.cpp:90] Creating Layer inception_5a/relu_3x3_reduce
I0816 12:44:07.260740 11069 net.cpp:410] inception_5a/relu_3x3_reduce <- inception_5a/3x3_reduce
I0816 12:44:07.260747 11069 net.cpp:357] inception_5a/relu_3x3_reduce -> inception_5a/3x3_reduce (in-place)
I0816 12:44:07.260752 11069 net.cpp:120] Setting up inception_5a/relu_3x3_reduce
I0816 12:44:07.261435 11069 net.cpp:127] Top shape: 10 160 7 7 (78400)
I0816 12:44:07.261443 11069 layer_factory.hpp:74] Creating layer inception_5a/3x3
I0816 12:44:07.261451 11069 net.cpp:90] Creating Layer inception_5a/3x3
I0816 12:44:07.261456 11069 net.cpp:410] inception_5a/3x3 <- inception_5a/3x3_reduce
I0816 12:44:07.261461 11069 net.cpp:368] inception_5a/3x3 -> inception_5a/3x3
I0816 12:44:07.261467 11069 net.cpp:120] Setting up inception_5a/3x3
I0816 12:44:07.265622 11069 net.cpp:127] Top shape: 10 320 7 7 (156800)
I0816 12:44:07.265640 11069 layer_factory.hpp:74] Creating layer inception_5a/relu_3x3
I0816 12:44:07.265647 11069 net.cpp:90] Creating Layer inception_5a/relu_3x3
I0816 12:44:07.265652 11069 net.cpp:410] inception_5a/relu_3x3 <- inception_5a/3x3
I0816 12:44:07.265657 11069 net.cpp:357] inception_5a/relu_3x3 -> inception_5a/3x3 (in-place)
I0816 12:44:07.265662 11069 net.cpp:120] Setting up inception_5a/relu_3x3
I0816 12:44:07.266207 11069 net.cpp:127] Top shape: 10 320 7 7 (156800)
I0816 12:44:07.266216 11069 layer_factory.hpp:74] Creating layer inception_5a/5x5_reduce
I0816 12:44:07.266224 11069 net.cpp:90] Creating Layer inception_5a/5x5_reduce
I0816 12:44:07.266229 11069 net.cpp:410] inception_5a/5x5_reduce <- pool4/3x3_s2_pool4/3x3_s2_0_split_2
I0816 12:44:07.266234 11069 net.cpp:368] inception_5a/5x5_reduce -> inception_5a/5x5_reduce
I0816 12:44:07.266240 11069 net.cpp:120] Setting up inception_5a/5x5_reduce
I0816 12:44:07.268079 11069 net.cpp:127] Top shape: 10 32 7 7 (15680)
I0816 12:44:07.268088 11069 layer_factory.hpp:74] Creating layer inception_5a/relu_5x5_reduce
I0816 12:44:07.268095 11069 net.cpp:90] Creating Layer inception_5a/relu_5x5_reduce
I0816 12:44:07.268100 11069 net.cpp:410] inception_5a/relu_5x5_reduce <- inception_5a/5x5_reduce
I0816 12:44:07.268103 11069 net.cpp:357] inception_5a/relu_5x5_reduce -> inception_5a/5x5_reduce (in-place)
I0816 12:44:07.268108 11069 net.cpp:120] Setting up inception_5a/relu_5x5_reduce
I0816 12:44:07.268641 11069 net.cpp:127] Top shape: 10 32 7 7 (15680)
I0816 12:44:07.268649 11069 layer_factory.hpp:74] Creating layer inception_5a/5x5
I0816 12:44:07.268656 11069 net.cpp:90] Creating Layer inception_5a/5x5
I0816 12:44:07.268661 11069 net.cpp:410] inception_5a/5x5 <- inception_5a/5x5_reduce
I0816 12:44:07.268666 11069 net.cpp:368] inception_5a/5x5 -> inception_5a/5x5
I0816 12:44:07.268672 11069 net.cpp:120] Setting up inception_5a/5x5
I0816 12:44:07.270961 11069 net.cpp:127] Top shape: 10 128 7 7 (62720)
I0816 12:44:07.270972 11069 layer_factory.hpp:74] Creating layer inception_5a/relu_5x5
I0816 12:44:07.270977 11069 net.cpp:90] Creating Layer inception_5a/relu_5x5
I0816 12:44:07.270982 11069 net.cpp:410] inception_5a/relu_5x5 <- inception_5a/5x5
I0816 12:44:07.270985 11069 net.cpp:357] inception_5a/relu_5x5 -> inception_5a/5x5 (in-place)
I0816 12:44:07.270990 11069 net.cpp:120] Setting up inception_5a/relu_5x5
I0816 12:44:07.271538 11069 net.cpp:127] Top shape: 10 128 7 7 (62720)
I0816 12:44:07.271548 11069 layer_factory.hpp:74] Creating layer inception_5a/pool
I0816 12:44:07.271551 11069 layer_factory.cpp:60] CUDNN does not support padding or multiple tops. Using Caffe's own pooling layer.
I0816 12:44:07.271579 11069 net.cpp:90] Creating Layer inception_5a/pool
I0816 12:44:07.271582 11069 net.cpp:410] inception_5a/pool <- pool4/3x3_s2_pool4/3x3_s2_0_split_3
I0816 12:44:07.271598 11069 net.cpp:368] inception_5a/pool -> inception_5a/pool
I0816 12:44:07.271605 11069 net.cpp:120] Setting up inception_5a/pool
I0816 12:44:07.271611 11069 net.cpp:127] Top shape: 10 832 7 7 (407680)
I0816 12:44:07.271615 11069 layer_factory.hpp:74] Creating layer inception_5a/pool_proj
I0816 12:44:07.271621 11069 net.cpp:90] Creating Layer inception_5a/pool_proj
I0816 12:44:07.271634 11069 net.cpp:410] inception_5a/pool_proj <- inception_5a/pool
I0816 12:44:07.271639 11069 net.cpp:368] inception_5a/pool_proj -> inception_5a/pool_proj
I0816 12:44:07.271649 11069 net.cpp:120] Setting up inception_5a/pool_proj
I0816 12:44:07.273905 11069 net.cpp:127] Top shape: 10 128 7 7 (62720)
I0816 12:44:07.273917 11069 layer_factory.hpp:74] Creating layer inception_5a/relu_pool_proj
I0816 12:44:07.273922 11069 net.cpp:90] Creating Layer inception_5a/relu_pool_proj
I0816 12:44:07.273926 11069 net.cpp:410] inception_5a/relu_pool_proj <- inception_5a/pool_proj
I0816 12:44:07.273931 11069 net.cpp:357] inception_5a/relu_pool_proj -> inception_5a/pool_proj (in-place)
I0816 12:44:07.273936 11069 net.cpp:120] Setting up inception_5a/relu_pool_proj
I0816 12:44:07.274559 11069 net.cpp:127] Top shape: 10 128 7 7 (62720)
I0816 12:44:07.274566 11069 layer_factory.hpp:74] Creating layer inception_5a/output
I0816 12:44:07.274572 11069 net.cpp:90] Creating Layer inception_5a/output
I0816 12:44:07.274575 11069 net.cpp:410] inception_5a/output <- inception_5a/1x1
I0816 12:44:07.274580 11069 net.cpp:410] inception_5a/output <- inception_5a/3x3
I0816 12:44:07.274583 11069 net.cpp:410] inception_5a/output <- inception_5a/5x5
I0816 12:44:07.274586 11069 net.cpp:410] inception_5a/output <- inception_5a/pool_proj
I0816 12:44:07.274590 11069 net.cpp:368] inception_5a/output -> inception_5a/output
I0816 12:44:07.274596 11069 net.cpp:120] Setting up inception_5a/output
I0816 12:44:07.274602 11069 net.cpp:127] Top shape: 10 832 7 7 (407680)
I0816 12:44:07.274605 11069 layer_factory.hpp:74] Creating layer inception_5a/output_inception_5a/output_0_split
I0816 12:44:07.274611 11069 net.cpp:90] Creating Layer inception_5a/output_inception_5a/output_0_split
I0816 12:44:07.274615 11069 net.cpp:410] inception_5a/output_inception_5a/output_0_split <- inception_5a/output
I0816 12:44:07.274618 11069 net.cpp:368] inception_5a/output_inception_5a/output_0_split -> inception_5a/output_inception_5a/output_0_split_0
I0816 12:44:07.274624 11069 net.cpp:368] inception_5a/output_inception_5a/output_0_split -> inception_5a/output_inception_5a/output_0_split_1
I0816 12:44:07.274629 11069 net.cpp:368] inception_5a/output_inception_5a/output_0_split -> inception_5a/output_inception_5a/output_0_split_2
I0816 12:44:07.274634 11069 net.cpp:368] inception_5a/output_inception_5a/output_0_split -> inception_5a/output_inception_5a/output_0_split_3
I0816 12:44:07.274638 11069 net.cpp:120] Setting up inception_5a/output_inception_5a/output_0_split
I0816 12:44:07.274643 11069 net.cpp:127] Top shape: 10 832 7 7 (407680)
I0816 12:44:07.274647 11069 net.cpp:127] Top shape: 10 832 7 7 (407680)
I0816 12:44:07.274651 11069 net.cpp:127] Top shape: 10 832 7 7 (407680)
I0816 12:44:07.274653 11069 net.cpp:127] Top shape: 10 832 7 7 (407680)
I0816 12:44:07.274657 11069 layer_factory.hpp:74] Creating layer inception_5b/1x1
I0816 12:44:07.274662 11069 net.cpp:90] Creating Layer inception_5b/1x1
I0816 12:44:07.274667 11069 net.cpp:410] inception_5b/1x1 <- inception_5a/output_inception_5a/output_0_split_0
I0816 12:44:07.274670 11069 net.cpp:368] inception_5b/1x1 -> inception_5b/1x1
I0816 12:44:07.274675 11069 net.cpp:120] Setting up inception_5b/1x1
I0816 12:44:07.278059 11069 net.cpp:127] Top shape: 10 384 7 7 (188160)
I0816 12:44:07.278069 11069 layer_factory.hpp:74] Creating layer inception_5b/relu_1x1
I0816 12:44:07.278076 11069 net.cpp:90] Creating Layer inception_5b/relu_1x1
I0816 12:44:07.278080 11069 net.cpp:410] inception_5b/relu_1x1 <- inception_5b/1x1
I0816 12:44:07.278084 11069 net.cpp:357] inception_5b/relu_1x1 -> inception_5b/1x1 (in-place)
I0816 12:44:07.278090 11069 net.cpp:120] Setting up inception_5b/relu_1x1
I0816 12:44:07.278636 11069 net.cpp:127] Top shape: 10 384 7 7 (188160)
I0816 12:44:07.278645 11069 layer_factory.hpp:74] Creating layer inception_5b/3x3_reduce
I0816 12:44:07.278650 11069 net.cpp:90] Creating Layer inception_5b/3x3_reduce
I0816 12:44:07.278655 11069 net.cpp:410] inception_5b/3x3_reduce <- inception_5a/output_inception_5a/output_0_split_1
I0816 12:44:07.278661 11069 net.cpp:368] inception_5b/3x3_reduce -> inception_5b/3x3_reduce
I0816 12:44:07.278671 11069 net.cpp:120] Setting up inception_5b/3x3_reduce
I0816 12:44:07.281266 11069 net.cpp:127] Top shape: 10 192 7 7 (94080)
I0816 12:44:07.281277 11069 layer_factory.hpp:74] Creating layer inception_5b/relu_3x3_reduce
I0816 12:44:07.281282 11069 net.cpp:90] Creating Layer inception_5b/relu_3x3_reduce
I0816 12:44:07.281286 11069 net.cpp:410] inception_5b/relu_3x3_reduce <- inception_5b/3x3_reduce
I0816 12:44:07.281291 11069 net.cpp:357] inception_5b/relu_3x3_reduce -> inception_5b/3x3_reduce (in-place)
I0816 12:44:07.281296 11069 net.cpp:120] Setting up inception_5b/relu_3x3_reduce
I0816 12:44:07.281841 11069 net.cpp:127] Top shape: 10 192 7 7 (94080)
I0816 12:44:07.281851 11069 layer_factory.hpp:74] Creating layer inception_5b/3x3
I0816 12:44:07.281857 11069 net.cpp:90] Creating Layer inception_5b/3x3
I0816 12:44:07.281862 11069 net.cpp:410] inception_5b/3x3 <- inception_5b/3x3_reduce
I0816 12:44:07.281870 11069 net.cpp:368] inception_5b/3x3 -> inception_5b/3x3
I0816 12:44:07.281877 11069 net.cpp:120] Setting up inception_5b/3x3
I0816 12:44:07.287029 11069 net.cpp:127] Top shape: 10 384 7 7 (188160)
I0816 12:44:07.287044 11069 layer_factory.hpp:74] Creating layer inception_5b/relu_3x3
I0816 12:44:07.287050 11069 net.cpp:90] Creating Layer inception_5b/relu_3x3
I0816 12:44:07.287053 11069 net.cpp:410] inception_5b/relu_3x3 <- inception_5b/3x3
I0816 12:44:07.287058 11069 net.cpp:357] inception_5b/relu_3x3 -> inception_5b/3x3 (in-place)
I0816 12:44:07.287063 11069 net.cpp:120] Setting up inception_5b/relu_3x3
I0816 12:44:07.287611 11069 net.cpp:127] Top shape: 10 384 7 7 (188160)
I0816 12:44:07.287619 11069 layer_factory.hpp:74] Creating layer inception_5b/5x5_reduce
I0816 12:44:07.287626 11069 net.cpp:90] Creating Layer inception_5b/5x5_reduce
I0816 12:44:07.287631 11069 net.cpp:410] inception_5b/5x5_reduce <- inception_5a/output_inception_5a/output_0_split_2
I0816 12:44:07.287637 11069 net.cpp:368] inception_5b/5x5_reduce -> inception_5b/5x5_reduce
I0816 12:44:07.287643 11069 net.cpp:120] Setting up inception_5b/5x5_reduce
I0816 12:44:07.289515 11069 net.cpp:127] Top shape: 10 48 7 7 (23520)
I0816 12:44:07.289525 11069 layer_factory.hpp:74] Creating layer inception_5b/relu_5x5_reduce
I0816 12:44:07.289532 11069 net.cpp:90] Creating Layer inception_5b/relu_5x5_reduce
I0816 12:44:07.289536 11069 net.cpp:410] inception_5b/relu_5x5_reduce <- inception_5b/5x5_reduce
I0816 12:44:07.289541 11069 net.cpp:357] inception_5b/relu_5x5_reduce -> inception_5b/5x5_reduce (in-place)
I0816 12:44:07.289546 11069 net.cpp:120] Setting up inception_5b/relu_5x5_reduce
I0816 12:44:07.290171 11069 net.cpp:127] Top shape: 10 48 7 7 (23520)
I0816 12:44:07.290180 11069 layer_factory.hpp:74] Creating layer inception_5b/5x5
I0816 12:44:07.290187 11069 net.cpp:90] Creating Layer inception_5b/5x5
I0816 12:44:07.290191 11069 net.cpp:410] inception_5b/5x5 <- inception_5b/5x5_reduce
I0816 12:44:07.290196 11069 net.cpp:368] inception_5b/5x5 -> inception_5b/5x5
I0816 12:44:07.290202 11069 net.cpp:120] Setting up inception_5b/5x5
I0816 12:44:07.292771 11069 net.cpp:127] Top shape: 10 128 7 7 (62720)
I0816 12:44:07.292781 11069 layer_factory.hpp:74] Creating layer inception_5b/relu_5x5
I0816 12:44:07.292788 11069 net.cpp:90] Creating Layer inception_5b/relu_5x5
I0816 12:44:07.292790 11069 net.cpp:410] inception_5b/relu_5x5 <- inception_5b/5x5
I0816 12:44:07.292795 11069 net.cpp:357] inception_5b/relu_5x5 -> inception_5b/5x5 (in-place)
I0816 12:44:07.292800 11069 net.cpp:120] Setting up inception_5b/relu_5x5
I0816 12:44:07.293354 11069 net.cpp:127] Top shape: 10 128 7 7 (62720)
I0816 12:44:07.293361 11069 layer_factory.hpp:74] Creating layer inception_5b/pool
I0816 12:44:07.293366 11069 layer_factory.cpp:60] CUDNN does not support padding or multiple tops. Using Caffe's own pooling layer.
I0816 12:44:07.293370 11069 net.cpp:90] Creating Layer inception_5b/pool
I0816 12:44:07.293375 11069 net.cpp:410] inception_5b/pool <- inception_5a/output_inception_5a/output_0_split_3
I0816 12:44:07.293380 11069 net.cpp:368] inception_5b/pool -> inception_5b/pool
I0816 12:44:07.293390 11069 net.cpp:120] Setting up inception_5b/pool
I0816 12:44:07.293397 11069 net.cpp:127] Top shape: 10 832 7 7 (407680)
I0816 12:44:07.293401 11069 layer_factory.hpp:74] Creating layer inception_5b/pool_proj
I0816 12:44:07.293407 11069 net.cpp:90] Creating Layer inception_5b/pool_proj
I0816 12:44:07.293411 11069 net.cpp:410] inception_5b/pool_proj <- inception_5b/pool
I0816 12:44:07.293416 11069 net.cpp:368] inception_5b/pool_proj -> inception_5b/pool_proj
I0816 12:44:07.293421 11069 net.cpp:120] Setting up inception_5b/pool_proj
I0816 12:44:07.295743 11069 net.cpp:127] Top shape: 10 128 7 7 (62720)
I0816 12:44:07.295754 11069 layer_factory.hpp:74] Creating layer inception_5b/relu_pool_proj
I0816 12:44:07.295760 11069 net.cpp:90] Creating Layer inception_5b/relu_pool_proj
I0816 12:44:07.295763 11069 net.cpp:410] inception_5b/relu_pool_proj <- inception_5b/pool_proj
I0816 12:44:07.295769 11069 net.cpp:357] inception_5b/relu_pool_proj -> inception_5b/pool_proj (in-place)
I0816 12:44:07.295774 11069 net.cpp:120] Setting up inception_5b/relu_pool_proj
I0816 12:44:07.296324 11069 net.cpp:127] Top shape: 10 128 7 7 (62720)
I0816 12:44:07.296331 11069 layer_factory.hpp:74] Creating layer inception_5b/output
I0816 12:44:07.296339 11069 net.cpp:90] Creating Layer inception_5b/output
I0816 12:44:07.296342 11069 net.cpp:410] inception_5b/output <- inception_5b/1x1
I0816 12:44:07.296346 11069 net.cpp:410] inception_5b/output <- inception_5b/3x3
I0816 12:44:07.296350 11069 net.cpp:410] inception_5b/output <- inception_5b/5x5
I0816 12:44:07.296353 11069 net.cpp:410] inception_5b/output <- inception_5b/pool_proj
I0816 12:44:07.296358 11069 net.cpp:368] inception_5b/output -> inception_5b/output
I0816 12:44:07.296363 11069 net.cpp:120] Setting up inception_5b/output
I0816 12:44:07.296368 11069 net.cpp:127] Top shape: 10 1024 7 7 (501760)
I0816 12:44:07.296372 11069 layer_factory.hpp:74] Creating layer pool5/7x7_s1
I0816 12:44:07.296378 11069 net.cpp:90] Creating Layer pool5/7x7_s1
I0816 12:44:07.296381 11069 net.cpp:410] pool5/7x7_s1 <- inception_5b/output
I0816 12:44:07.296386 11069 net.cpp:368] pool5/7x7_s1 -> pool5/7x7_s1
I0816 12:44:07.296391 11069 net.cpp:120] Setting up pool5/7x7_s1
I0816 12:44:07.296943 11069 net.cpp:127] Top shape: 10 1024 1 1 (10240)
I0816 12:44:07.296952 11069 layer_factory.hpp:74] Creating layer pool5/drop_7x7_s1
I0816 12:44:07.296957 11069 net.cpp:90] Creating Layer pool5/drop_7x7_s1
I0816 12:44:07.296962 11069 net.cpp:410] pool5/drop_7x7_s1 <- pool5/7x7_s1
I0816 12:44:07.296967 11069 net.cpp:357] pool5/drop_7x7_s1 -> pool5/7x7_s1 (in-place)
I0816 12:44:07.296972 11069 net.cpp:120] Setting up pool5/drop_7x7_s1
I0816 12:44:07.296977 11069 net.cpp:127] Top shape: 10 1024 1 1 (10240)
I0816 12:44:07.296979 11069 layer_factory.hpp:74] Creating layer loss3/classifier
I0816 12:44:07.296990 11069 net.cpp:90] Creating Layer loss3/classifier
I0816 12:44:07.296994 11069 net.cpp:410] loss3/classifier <- pool5/7x7_s1
I0816 12:44:07.296999 11069 net.cpp:368] loss3/classifier -> loss3/classifier
I0816 12:44:07.297005 11069 net.cpp:120] Setting up loss3/classifier
I0816 12:44:07.302382 11069 net.cpp:127] Top shape: 10 1000 (10000)
I0816 12:44:07.302400 11069 layer_factory.hpp:74] Creating layer prob
I0816 12:44:07.302407 11069 net.cpp:90] Creating Layer prob
I0816 12:44:07.302412 11069 net.cpp:410] prob <- loss3/classifier
I0816 12:44:07.302417 11069 net.cpp:368] prob -> prob
I0816 12:44:07.302423 11069 net.cpp:120] Setting up prob
I0816 12:44:07.303112 11069 net.cpp:127] Top shape: 10 1000 (10000)
I0816 12:44:07.303122 11069 net.cpp:194] prob does not need backward computation.
I0816 12:44:07.303125 11069 net.cpp:194] loss3/classifier does not need backward computation.
I0816 12:44:07.303128 11069 net.cpp:194] pool5/drop_7x7_s1 does not need backward computation.
I0816 12:44:07.303131 11069 net.cpp:194] pool5/7x7_s1 does not need backward computation.
I0816 12:44:07.303134 11069 net.cpp:194] inception_5b/output does not need backward computation.
…
I0816 12:44:07.462257 11069 upgrade_proto.cpp:626] Successfully upgraded file specified using deprecated V1LayerParameter
I0816 12:44:07.478209 11069 upgrade_proto.cpp:618] Attempting to upgrade input file specified using deprecated V1LayerParameter: /works/caffe//models/vgg/vgg_layer16_deploy.prototxt
I0816 12:44:07.478310 11069 upgrade_proto.cpp:626] Successfully upgraded file specified using deprecated V1LayerParameter
I0816 12:44:07.478482 11069 net.cpp:42] Initializing net from parameters: 
name: "VGG_ILSVRC_16_layers"
input: "data"
input_dim: 10
input_dim: 3
input_dim: 224
input_dim: 224
state {
  phase: TEST
}
layer {
  name: "conv1_1"
  type: "Convolution"
  bottom: "data"
  top: "conv1_1"
  convolution_param {
    num_output: 64
    pad: 1
    kernel_size: 3
  }
}
layer {
  name: "relu1_1"
  type: "ReLU"
  bottom: "conv1_1"
  top: "conv1_1"
}
layer {
  name: "conv1_2"
  type: "Convolution"
  bottom: "conv1_1"
  top: "conv1_2"
  convolution_param {
    num_output: 64
    pad: 1
    kernel_size: 3
  }
}
layer {
  name: "relu1_2"
  type: "ReLU"
  bottom: "conv1_2"
  top: "conv1_2"
}
layer {
  name: "pool1"
  type: "Pooling"
  bottom: "conv1_2"
  top: "pool1"
  pooling_param {
    pool: MAX
    kernel_size: 2
    stride: 2
  }
}
layer {
  name: "conv2_1"
  type: "Convolution"
  bottom: "pool1"
  top: "conv2_1"
  convolution_param {
    num_output: 128
    pad: 1
    kernel_size: 3
  }
}
layer {
  name: "relu2_1"
  type: "ReLU"
  bottom: "conv2_1"
  top: "conv2_1"
}
layer {
  name: "conv2_2"
  type: "Convolution"
  bottom: "conv2_1"
  top: "conv2_2"
  convolution_param {
    num_output: 128
    pad: 1
    kernel_size: 3
  }
}
layer {
  name: "relu2_2"
  type: "ReLU"
  bottom: "conv2_2"
  top: "conv2_2"
}
layer {
  name: "pool2"
  type: "Pooling"
  bottom: "conv2_2"
  top: "pool2"
  pooling_param {
    pool: MAX
    kernel_size: 2
    stride: 2
  }
}
layer {
  name: "conv3_1"
  type: "Convolution"
  bottom: "pool2"
  top: "conv3_1"
  convolution_param {
    num_output: 256
    pad: 1
    kernel_size: 3
  }
}
layer {
  name: "relu3_1"
  type: "ReLU"
  bottom: "conv3_1"
  top: "conv3_1"
}
layer {
  name: "conv3_2"
  type: "Convolution"
  bottom: "conv3_1"
  top: "conv3_2"
  convolution_param {
    num_output: 256
    pad: 1
    kernel_size: 3
  }
}
layer {
  name: "relu3_2"
  type: "ReLU"
  bottom: "conv3_2"
  top: "conv3_2"
}
layer {
  name: "conv3_3"
  type: "Convolution"
  bottom: "conv3_2"
  top: "conv3_3"
  convolution_param {
    num_output: 256
    pad: 1
    kernel_size: 3
  }
}
layer {
  name: "relu3_3"
  type: "ReLU"
  bottom: "conv3_3"
  top: "conv3_3"
}
layer {
  name: "pool3"
  type: "Pooling"
  bottom: "conv3_3"
  top: "pool3"
  pooling_param {
    pool: MAX
    kernel_size: 2
    stride: 2
  }
}
layer {
  name: "conv4_1"
  type: "Convolution"
  bottom: "pool3"
  top: "conv4_1"
  convolution_param {
    num_output: 512
    pad: 1
    kernel_size: 3
  }
}
layer {
  name: "relu4_1"
  type: "ReLU"
  bottom: "conv4_1"
  top: "conv4_1"
}
layer {
  name: "conv4_2"
  type: "Convolution"
  bottom: "conv4_1"
  top: "conv4_2"
  convolution_param {
    num_output: 512
    pad: 1
    kernel_size: 3
  }
}
layer {
  name: "relu4_2"
  type: "ReLU"
  bottom: "conv4_2"
  top: "conv4_2"
}
layer {
  name: "conv4_3"
  type: "Convolution"
  bottom: "conv4_2"
  top: "conv4_3"
  convolution_param {
    num_output: 512
    pad: 1
    kernel_size: 3
  }
}
layer {
  name: "relu4_3"
  type: "ReLU"
  bottom: "conv4_3"
  top: "conv4_3"
}
layer {
  name: "pool4"
  type: "Pooling"
  bottom: "conv4_3"
  top: "pool4"
  pooling_param {
    pool: MAX
    kernel_size: 2
    stride: 2
  }
}
layer {
  name: "conv5_1"
  type: "Convolution"
  bottom: "pool4"
  top: "conv5_1"
  convolution_param {
    num_output: 512
    pad: 1
    kernel_size: 3
  }
}
layer {
  name: "relu5_1"
  type: "ReLU"
  bottom: "conv5_1"
  top: "conv5_1"
}
layer {
  name: "conv5_2"
  type: "Convolution"
  bottom: "conv5_1"
  top: "conv5_2"
  convolution_param {
    num_output: 512
    pad: 1
    kernel_size: 3
  }
}
layer {
  name: "relu5_2"
  type: "ReLU"
  bottom: "conv5_2"
  top: "conv5_2"
}
layer {
  name: "conv5_3"
  type: "Convolution"
  bottom: "conv5_2"
  top: "conv5_3"
  convolution_param {
    num_output: 512
    pad: 1
    kernel_size: 3
  }
}
layer {
  name: "relu5_3"
  type: "ReLU"
  bottom: "conv5_3"
  top: "conv5_3"
}
layer {
  name: "pool5"
  type: "Pooling"
  bottom: "conv5_3"
  top: "pool5"
  pooling_param {
    pool: MAX
    kernel_size: 2
    stride: 2
  }
}
layer {
  name: "fc6"
  type: "InnerProduct"
  bottom: "pool5"
  top: "fc6"
  inner_product_param {
    num_output: 4096
  }
}
layer {
  name: "relu6"
  type: "ReLU"
  bottom: "fc6"
  top: "fc6"
}
layer {
  name: "drop6"
  type: "Dropout"
  bottom: "fc6"
  top: "fc6"
  dropout_param {
    dropout_ratio: 0.5
  }
}
layer {
  name: "fc7"
  type: "InnerProduct"
  bottom: "fc6"
  top: "fc7"
  inner_product_param {
    num_output: 4096
  }
}
layer {
  name: "relu7"
  type: "ReLU"
  bottom: "fc7"
  top: "fc7"
}
layer {
  name: "drop7"
  type: "Dropout"
  bottom: "fc7"
  top: "fc7"
  dropout_param {
    dropout_ratio: 0.5
  }
}
layer {
  name: "fc8"
  type: "InnerProduct"
  bottom: "fc7"
  top: "fc8"
  inner_product_param {
    num_output: 1000
  }
}
layer {
  name: "prob"
  type: "Softmax"
  bottom: "fc8"
  top: "prob"
}
I0816 12:44:07.478564 11069 net.cpp:370] Input 0 -> data
I0816 12:44:07.478579 11069 layer_factory.hpp:74] Creating layer conv1_1
I0816 12:44:07.478587 11069 net.cpp:90] Creating Layer conv1_1
I0816 12:44:07.478591 11069 net.cpp:410] conv1_1 <- data
I0816 12:44:07.478596 11069 net.cpp:368] conv1_1 -> conv1_1
I0816 12:44:07.478601 11069 net.cpp:120] Setting up conv1_1
I0816 12:44:07.481041 11069 net.cpp:127] Top shape: 10 64 224 224 (32112640)
I0816 12:44:07.481056 11069 layer_factory.hpp:74] Creating layer relu1_1
I0816 12:44:07.481062 11069 net.cpp:90] Creating Layer relu1_1
I0816 12:44:07.481066 11069 net.cpp:410] relu1_1 <- conv1_1
I0816 12:44:07.481071 11069 net.cpp:357] relu1_1 -> conv1_1 (in-place)
I0816 12:44:07.481076 11069 net.cpp:120] Setting up relu1_1
I0816 12:44:07.481709 11069 net.cpp:127] Top shape: 10 64 224 224 (32112640)
I0816 12:44:07.481717 11069 layer_factory.hpp:74] Creating layer conv1_2
I0816 12:44:07.481724 11069 net.cpp:90] Creating Layer conv1_2
I0816 12:44:07.481729 11069 net.cpp:410] conv1_2 <- conv1_1
I0816 12:44:07.481732 11069 net.cpp:368] conv1_2 -> conv1_2
I0816 12:44:07.481739 11069 net.cpp:120] Setting up conv1_2
I0816 12:44:07.483711 11069 net.cpp:127] Top shape: 10 64 224 224 (32112640)
I0816 12:44:07.483722 11069 layer_factory.hpp:74] Creating layer relu1_2
I0816 12:44:07.483728 11069 net.cpp:90] Creating Layer relu1_2
I0816 12:44:07.483731 11069 net.cpp:410] relu1_2 <- conv1_2
I0816 12:44:07.483737 11069 net.cpp:357] relu1_2 -> conv1_2 (in-place)
I0816 12:44:07.483741 11069 net.cpp:120] Setting up relu1_2
I0816 12:44:07.484310 11069 net.cpp:127] Top shape: 10 64 224 224 (32112640)
I0816 12:44:07.484318 11069 layer_factory.hpp:74] Creating layer pool1
I0816 12:44:07.484325 11069 net.cpp:90] Creating Layer pool1
I0816 12:44:07.484328 11069 net.cpp:410] pool1 <- conv1_2
I0816 12:44:07.484333 11069 net.cpp:368] pool1 -> pool1
I0816 12:44:07.484338 11069 net.cpp:120] Setting up pool1
I0816 12:44:07.484906 11069 net.cpp:127] Top shape: 10 64 112 112 (8028160)
I0816 12:44:07.484915 11069 layer_factory.hpp:74] Creating layer conv2_1
I0816 12:44:07.484920 11069 net.cpp:90] Creating Layer conv2_1
I0816 12:44:07.484923 11069 net.cpp:410] conv2_1 <- pool1
I0816 12:44:07.484927 11069 net.cpp:368] conv2_1 -> conv2_1
I0816 12:44:07.484933 11069 net.cpp:120] Setting up conv2_1
I0816 12:44:07.486749 11069 net.cpp:127] Top shape: 10 128 112 112 (16056320)
I0816 12:44:07.486763 11069 layer_factory.hpp:74] Creating layer relu2_1
I0816 12:44:07.486768 11069 net.cpp:90] Creating Layer relu2_1
I0816 12:44:07.486773 11069 net.cpp:410] relu2_1 <- conv2_1
I0816 12:44:07.486776 11069 net.cpp:357] relu2_1 -> conv2_1 (in-place)
I0816 12:44:07.486780 11069 net.cpp:120] Setting up relu2_1
I0816 12:44:07.487431 11069 net.cpp:127] Top shape: 10 128 112 112 (16056320)
I0816 12:44:07.487438 11069 layer_factory.hpp:74] Creating layer conv2_2
I0816 12:44:07.487444 11069 net.cpp:90] Creating Layer conv2_2
I0816 12:44:07.487447 11069 net.cpp:410] conv2_2 <- conv2_1
I0816 12:44:07.487452 11069 net.cpp:368] conv2_2 -> conv2_2
I0816 12:44:07.487457 11069 net.cpp:120] Setting up conv2_2
I0816 12:44:07.489413 11069 net.cpp:127] Top shape: 10 128 112 112 (16056320)
I0816 12:44:07.489424 11069 layer_factory.hpp:74] Creating layer relu2_2
I0816 12:44:07.489431 11069 net.cpp:90] Creating Layer relu2_2
I0816 12:44:07.489434 11069 net.cpp:410] relu2_2 <- conv2_2
I0816 12:44:07.489439 11069 net.cpp:357] relu2_2 -> conv2_2 (in-place)
I0816 12:44:07.489444 11069 net.cpp:120] Setting up relu2_2
I0816 12:44:07.490245 11069 net.cpp:127] Top shape: 10 128 112 112 (16056320)
I0816 12:44:07.490254 11069 layer_factory.hpp:74] Creating layer pool2
I0816 12:44:07.490259 11069 net.cpp:90] Creating Layer pool2
I0816 12:44:07.490262 11069 net.cpp:410] pool2 <- conv2_2
I0816 12:44:07.490267 11069 net.cpp:368] pool2 -> pool2
I0816 12:44:07.490272 11069 net.cpp:120] Setting up pool2
I0816 12:44:07.490799 11069 net.cpp:127] Top shape: 10 128 56 56 (4014080)
I0816 12:44:07.490808 11069 layer_factory.hpp:74] Creating layer conv3_1
I0816 12:44:07.490813 11069 net.cpp:90] Creating Layer conv3_1
I0816 12:44:07.490815 11069 net.cpp:410] conv3_1 <- pool2
I0816 12:44:07.490823 11069 net.cpp:368] conv3_1 -> conv3_1
I0816 12:44:07.490829 11069 net.cpp:120] Setting up conv3_1
I0816 12:44:07.492956 11069 net.cpp:127] Top shape: 10 256 56 56 (8028160)
I0816 12:44:07.492969 11069 layer_factory.hpp:74] Creating layer relu3_1
I0816 12:44:07.492974 11069 net.cpp:90] Creating Layer relu3_1
I0816 12:44:07.492977 11069 net.cpp:410] relu3_1 <- conv3_1
I0816 12:44:07.492981 11069 net.cpp:357] relu3_1 -> conv3_1 (in-place)
I0816 12:44:07.492986 11069 net.cpp:120] Setting up relu3_1
I0816 12:44:07.493633 11069 net.cpp:127] Top shape: 10 256 56 56 (8028160)
I0816 12:44:07.493640 11069 layer_factory.hpp:74] Creating layer conv3_2
I0816 12:44:07.493645 11069 net.cpp:90] Creating Layer conv3_2
I0816 12:44:07.493649 11069 net.cpp:410] conv3_2 <- conv3_1
I0816 12:44:07.493654 11069 net.cpp:368] conv3_2 -> conv3_2
I0816 12:44:07.493660 11069 net.cpp:120] Setting up conv3_2
I0816 12:44:07.496166 11069 net.cpp:127] Top shape: 10 256 56 56 (8028160)
I0816 12:44:07.496177 11069 layer_factory.hpp:74] Creating layer relu3_2
I0816 12:44:07.496184 11069 net.cpp:90] Creating Layer relu3_2
I0816 12:44:07.496187 11069 net.cpp:410] relu3_2 <- conv3_2
I0816 12:44:07.496191 11069 net.cpp:357] relu3_2 -> conv3_2 (in-place)
I0816 12:44:07.496196 11069 net.cpp:120] Setting up relu3_2
I0816 12:44:07.496754 11069 net.cpp:127] Top shape: 10 256 56 56 (8028160)
I0816 12:44:07.496762 11069 layer_factory.hpp:74] Creating layer conv3_3
I0816 12:44:07.496767 11069 net.cpp:90] Creating Layer conv3_3
I0816 12:44:07.496770 11069 net.cpp:410] conv3_3 <- conv3_2
I0816 12:44:07.496776 11069 net.cpp:368] conv3_3 -> conv3_3
I0816 12:44:07.496781 11069 net.cpp:120] Setting up conv3_3
I0816 12:44:07.499196 11069 net.cpp:127] Top shape: 10 256 56 56 (8028160)
I0816 12:44:07.499207 11069 layer_factory.hpp:74] Creating layer relu3_3
I0816 12:44:07.499212 11069 net.cpp:90] Creating Layer relu3_3
I0816 12:44:07.499217 11069 net.cpp:410] relu3_3 <- conv3_3
I0816 12:44:07.499220 11069 net.cpp:357] relu3_3 -> conv3_3 (in-place)
I0816 12:44:07.499224 11069 net.cpp:120] Setting up relu3_3
I0816 12:44:07.499869 11069 net.cpp:127] Top shape: 10 256 56 56 (8028160)
I0816 12:44:07.499877 11069 layer_factory.hpp:74] Creating layer pool3
I0816 12:44:07.499886 11069 net.cpp:90] Creating Layer pool3
I0816 12:44:07.499889 11069 net.cpp:410] pool3 <- conv3_3
I0816 12:44:07.499894 11069 net.cpp:368] pool3 -> pool3
I0816 12:44:07.499899 11069 net.cpp:120] Setting up pool3
I0816 12:44:07.500458 11069 net.cpp:127] Top shape: 10 256 28 28 (2007040)
I0816 12:44:07.500465 11069 layer_factory.hpp:74] Creating layer conv4_1
I0816 12:44:07.500471 11069 net.cpp:90] Creating Layer conv4_1
I0816 12:44:07.500474 11069 net.cpp:410] conv4_1 <- pool3
I0816 12:44:07.500480 11069 net.cpp:368] conv4_1 -> conv4_1
I0816 12:44:07.500485 11069 net.cpp:120] Setting up conv4_1
I0816 12:44:07.507072 11069 net.cpp:127] Top shape: 10 512 28 28 (4014080)
I0816 12:44:07.507086 11069 layer_factory.hpp:74] Creating layer relu4_1
I0816 12:44:07.507092 11069 net.cpp:90] Creating Layer relu4_1
I0816 12:44:07.507097 11069 net.cpp:410] relu4_1 <- conv4_1
I0816 12:44:07.507102 11069 net.cpp:357] relu4_1 -> conv4_1 (in-place)
I0816 12:44:07.507107 11069 net.cpp:120] Setting up relu4_1
I0816 12:44:07.507674 11069 net.cpp:127] Top shape: 10 512 28 28 (4014080)
I0816 12:44:07.507683 11069 layer_factory.hpp:74] Creating layer conv4_2
I0816 12:44:07.507688 11069 net.cpp:90] Creating Layer conv4_2
I0816 12:44:07.507691 11069 net.cpp:410] conv4_2 <- conv4_1
I0816 12:44:07.507697 11069 net.cpp:368] conv4_2 -> conv4_2
I0816 12:44:07.507702 11069 net.cpp:120] Setting up conv4_2
I0816 12:44:07.519050 11069 net.cpp:127] Top shape: 10 512 28 28 (4014080)
I0816 12:44:07.519073 11069 layer_factory.hpp:74] Creating layer relu4_2
I0816 12:44:07.519081 11069 net.cpp:90] Creating Layer relu4_2
I0816 12:44:07.519084 11069 net.cpp:410] relu4_2 <- conv4_2
I0816 12:44:07.519089 11069 net.cpp:357] relu4_2 -> conv4_2 (in-place)
I0816 12:44:07.519094 11069 net.cpp:120] Setting up relu4_2
I0816 12:44:07.519675 11069 net.cpp:127] Top shape: 10 512 28 28 (4014080)
I0816 12:44:07.519690 11069 layer_factory.hpp:74] Creating layer conv4_3
I0816 12:44:07.519696 11069 net.cpp:90] Creating Layer conv4_3
I0816 12:44:07.519701 11069 net.cpp:410] conv4_3 <- conv4_2
I0816 12:44:07.519706 11069 net.cpp:368] conv4_3 -> conv4_3
I0816 12:44:07.519711 11069 net.cpp:120] Setting up conv4_3
I0816 12:44:07.568789 11069 net.cpp:127] Top shape: 10 512 28 28 (4014080)
I0816 12:44:07.568819 11069 layer_factory.hpp:74] Creating layer relu4_3
I0816 12:44:07.568830 11069 net.cpp:90] Creating Layer relu4_3
I0816 12:44:07.568835 11069 net.cpp:410] relu4_3 <- conv4_3
I0816 12:44:07.568840 11069 net.cpp:357] relu4_3 -> conv4_3 (in-place)
I0816 12:44:07.568846 11069 net.cpp:120] Setting up relu4_3
I0816 12:44:07.569496 11069 net.cpp:127] Top shape: 10 512 28 28 (4014080)
I0816 12:44:07.569505 11069 layer_factory.hpp:74] Creating layer pool4
I0816 12:44:07.569514 11069 net.cpp:90] Creating Layer pool4
I0816 12:44:07.569517 11069 net.cpp:410] pool4 <- conv4_3
I0816 12:44:07.569522 11069 net.cpp:368] pool4 -> pool4
I0816 12:44:07.569528 11069 net.cpp:120] Setting up pool4
I0816 12:44:07.570163 11069 net.cpp:127] Top shape: 10 512 14 14 (1003520)
I0816 12:44:07.570173 11069 layer_factory.hpp:74] Creating layer conv5_1
I0816 12:44:07.570179 11069 net.cpp:90] Creating Layer conv5_1
I0816 12:44:07.570183 11069 net.cpp:410] conv5_1 <- pool4
I0816 12:44:07.570188 11069 net.cpp:368] conv5_1 -> conv5_1
I0816 12:44:07.570194 11069 net.cpp:120] Setting up conv5_1
I0816 12:44:07.581131 11069 net.cpp:127] Top shape: 10 512 14 14 (1003520)
I0816 12:44:07.581159 11069 layer_factory.hpp:74] Creating layer relu5_1
I0816 12:44:07.581169 11069 net.cpp:90] Creating Layer relu5_1
I0816 12:44:07.581174 11069 net.cpp:410] relu5_1 <- conv5_1
I0816 12:44:07.581181 11069 net.cpp:357] relu5_1 -> conv5_1 (in-place)
I0816 12:44:07.581187 11069 net.cpp:120] Setting up relu5_1
I0816 12:44:07.581833 11069 net.cpp:127] Top shape: 10 512 14 14 (1003520)
I0816 12:44:07.581842 11069 layer_factory.hpp:74] Creating layer conv5_2
I0816 12:44:07.581850 11069 net.cpp:90] Creating Layer conv5_2
I0816 12:44:07.581853 11069 net.cpp:410] conv5_2 <- conv5_1
I0816 12:44:07.581858 11069 net.cpp:368] conv5_2 -> conv5_2
I0816 12:44:07.581867 11069 net.cpp:120] Setting up conv5_2
I0816 12:44:07.596593 11069 net.cpp:127] Top shape: 10 512 14 14 (1003520)
I0816 12:44:07.596622 11069 layer_factory.hpp:74] Creating layer relu5_2
I0816 12:44:07.596632 11069 net.cpp:90] Creating Layer relu5_2
I0816 12:44:07.596637 11069 net.cpp:410] relu5_2 <- conv5_2
I0816 12:44:07.596643 11069 net.cpp:357] relu5_2 -> conv5_2 (in-place)
I0816 12:44:07.596649 11069 net.cpp:120] Setting up relu5_2
I0816 12:44:07.597424 11069 net.cpp:127] Top shape: 10 512 14 14 (1003520)
I0816 12:44:07.597434 11069 layer_factory.hpp:74] Creating layer conv5_3
I0816 12:44:07.597441 11069 net.cpp:90] Creating Layer conv5_3
I0816 12:44:07.597445 11069 net.cpp:410] conv5_3 <- conv5_2
I0816 12:44:07.597450 11069 net.cpp:368] conv5_3 -> conv5_3
I0816 12:44:07.597455 11069 net.cpp:120] Setting up conv5_3
I0816 12:44:07.608893 11069 net.cpp:127] Top shape: 10 512 14 14 (1003520)
I0816 12:44:07.608913 11069 layer_factory.hpp:74] Creating layer relu5_3
I0816 12:44:07.608922 11069 net.cpp:90] Creating Layer relu5_3
I0816 12:44:07.608927 11069 net.cpp:410] relu5_3 <- conv5_3
I0816 12:44:07.608932 11069 net.cpp:357] relu5_3 -> conv5_3 (in-place)
I0816 12:44:07.608937 11069 net.cpp:120] Setting up relu5_3
I0816 12:44:07.609545 11069 net.cpp:127] Top shape: 10 512 14 14 (1003520)
I0816 12:44:07.609555 11069 layer_factory.hpp:74] Creating layer pool5
I0816 12:44:07.609562 11069 net.cpp:90] Creating Layer pool5
I0816 12:44:07.609566 11069 net.cpp:410] pool5 <- conv5_3
I0816 12:44:07.609572 11069 net.cpp:368] pool5 -> pool5
I0816 12:44:07.609577 11069 net.cpp:120] Setting up pool5
I0816 12:44:07.610182 11069 net.cpp:127] Top shape: 10 512 7 7 (250880)
I0816 12:44:07.610189 11069 layer_factory.hpp:74] Creating layer fc6
I0816 12:44:07.610198 11069 net.cpp:90] Creating Layer fc6
I0816 12:44:07.610205 11069 net.cpp:410] fc6 <- pool5
I0816 12:44:07.610211 11069 net.cpp:368] fc6 -> fc6
I0816 12:44:07.610218 11069 net.cpp:120] Setting up fc6
I0816 12:44:08.104723 11069 net.cpp:127] Top shape: 10 4096 (40960)
I0816 12:44:08.104758 11069 layer_factory.hpp:74] Creating layer relu6
I0816 12:44:08.104774 11069 net.cpp:90] Creating Layer relu6
I0816 12:44:08.104780 11069 net.cpp:410] relu6 <- fc6
I0816 12:44:08.104785 11069 net.cpp:357] relu6 -> fc6 (in-place)
I0816 12:44:08.104794 11069 net.cpp:120] Setting up relu6
I0816 12:44:08.106029 11069 net.cpp:127] Top shape: 10 4096 (40960)
I0816 12:44:08.106042 11069 layer_factory.hpp:74] Creating layer drop6
I0816 12:44:08.106050 11069 net.cpp:90] Creating Layer drop6
I0816 12:44:08.106055 11069 net.cpp:410] drop6 <- fc6
I0816 12:44:08.106060 11069 net.cpp:357] drop6 -> fc6 (in-place)
I0816 12:44:08.106065 11069 net.cpp:120] Setting up drop6
I0816 12:44:08.106071 11069 net.cpp:127] Top shape: 10 4096 (40960)
I0816 12:44:08.106075 11069 layer_factory.hpp:74] Creating layer fc7
I0816 12:44:08.106081 11069 net.cpp:90] Creating Layer fc7
I0816 12:44:08.106086 11069 net.cpp:410] fc7 <- fc6
I0816 12:44:08.106089 11069 net.cpp:368] fc7 -> fc7
I0816 12:44:08.106096 11069 net.cpp:120] Setting up fc7
I0816 12:44:08.177903 11069 net.cpp:127] Top shape: 10 4096 (40960)
I0816 12:44:08.177935 11069 layer_factory.hpp:74] Creating layer relu7
I0816 12:44:08.177947 11069 net.cpp:90] Creating Layer relu7
I0816 12:44:08.177953 11069 net.cpp:410] relu7 <- fc7
I0816 12:44:08.177958 11069 net.cpp:357] relu7 -> fc7 (in-place)
I0816 12:44:08.177964 11069 net.cpp:120] Setting up relu7
I0816 12:44:08.179011 11069 net.cpp:127] Top shape: 10 4096 (40960)
I0816 12:44:08.179023 11069 layer_factory.hpp:74] Creating layer drop7
I0816 12:44:08.179030 11069 net.cpp:90] Creating Layer drop7
I0816 12:44:08.179034 11069 net.cpp:410] drop7 <- fc7
I0816 12:44:08.179039 11069 net.cpp:357] drop7 -> fc7 (in-place)
I0816 12:44:08.179044 11069 net.cpp:120] Setting up drop7
I0816 12:44:08.179050 11069 net.cpp:127] Top shape: 10 4096 (40960)
I0816 12:44:08.179054 11069 layer_factory.hpp:74] Creating layer fc8
I0816 12:44:08.179060 11069 net.cpp:90] Creating Layer fc8
I0816 12:44:08.179064 11069 net.cpp:410] fc8 <- fc7
I0816 12:44:08.179069 11069 net.cpp:368] fc8 -> fc8
I0816 12:44:08.179075 11069 net.cpp:120] Setting up fc8
I0816 12:44:08.195557 11069 net.cpp:127] Top shape: 10 1000 (10000)
I0816 12:44:08.195583 11069 layer_factory.hpp:74] Creating layer prob
I0816 12:44:08.195592 11069 net.cpp:90] Creating Layer prob
I0816 12:44:08.195597 11069 net.cpp:410] prob <- fc8
I0816 12:44:08.195602 11069 net.cpp:368] prob -> prob
I0816 12:44:08.195611 11069 net.cpp:120] Setting up prob
I0816 12:44:08.196722 11069 net.cpp:127] Top shape: 10 1000 (10000)
I0816 12:44:08.196733 11069 net.cpp:194] prob does not need backward computation.
I0816 12:44:08.196738 11069 net.cpp:194] fc8 does not need backward computation.
I0816 12:44:08.196743 11069 net.cpp:194] drop7 does not need backward computation.
I0816 12:44:08.196745 11069 net.cpp:194] relu7 does not need backward computation.
I0816 12:44:08.196748 11069 net.cpp:194] fc7 does not need backward computation.
…
